base_model.pt (torch, 54627 bytes, 5 tensors)

rnn.weight_ih_l0 f4 [96, 104]
0.00011107731 -0.00026241675 -0.000108056964 6.4248e-05 3.375435e-05 0.00031071695 8.561564e-05 -4.1116262e-05
-1.3416782e-05 -1.0982409e-05 -3.1382264e-05 0.00015233496 8.526585e-05 5.888686e-06 -5.9027116e-05 -5.4046275e-05
-0.00024777444 1.7969687e-05 5.00315e-05 7.74545e-05 0.00012317325 0.00022033301 7.5440454e-05 -0.0001667166
-7.3094816e-05 -1.0527713e-06 7.9436206e-05 3.2390442e-06 5.9912087e-05 -0.00015117691 -0.0003113033 -9.0189125e-05
-0.00010268634 0.0004008939 0.00011773576 7.027307e-05 -3.9501756e-05 8.161787e-06 0.00016408898 -0.00044473365
6.661106e-05 9.08278e-05 0.0004284141 0.00010684851 0.00011712607 7.0335573e-06 0.00032030485 0.0002577342
0.00032125498 -0.00011436458 0.00015363493 -8.3534054e-05 5.7612433e-05 9.4575196e-05 3.752428e-05 -6.845532e-06
5.303337e-05 -1.004435e-05 3.9046878e-05 0.00011567428 9.545983e-05 -0.000105047315 0.00028382143 -4.077308e-05
-7.351524e-05 4.0657214e-05 3.4678073e-05 -4.7716962e-06 -1.3332096e-06 -0.00019593124 -8.769449e-05 7.597763e-05
-3.0777024e-05 -4.5549382e-07 7.517455e-05 1.07485575e-05 -0.00010199132 -0.00017723351 -5.5845478e-05 0.0002473617
0.0002403302 8.123335e-05 0.00014020974 0.00027672152 2.1092428e-05 9.270783e-06 -0.00011337969 -0.00029345884
-0.00022630165 3.4645785e-05 -0.00022608342 0.0003853791 0.00014246964 -0.00016513308 -0.00014409736 9.76281e-05
0.00023958484 -0.00026961448 3.912889e-05 -5.672184e-05 -5.5335563e-06 1.0712557e-05 0.00010520828 0.00028264383
0.0001801031 9.7097356e-05 0.00012749956 5.788624e-05 1.0722035e-05 3.6287853e-05 -0.00016006808 -0.00021783261
-0.00018115224 -8.539429e-06 -9.279868e-05 1.3252768e-06 -0.00024392278 8.985914e-05 -6.427114e-05 0.00014401703
0.00016673983 0.00019059866 -1.5917323e-05 -0.00011313782 -3.7607402e-05 1.3541952e-05 -4.3324406e-05 -7.38573e-05
9.974007e-05 -0.00015338778 -0.00014733325 -6.843726e-05 -0.00017678949 0.00019801005 4.857155e-05 0.0001257253
-5.3680782e-05 -0.00012475421 1.2867337e-05 -0.0002633799 5.764977e-05 9.55958e-05 -0.0003231869 -8.130996e-05
3.5873632e-06 6.257411e-05 -0.00018079724 5.402338e-05 0.00011775791 -0.00014958563 0.00014383698 5.9162914e-05
-0.00012480105 -0.00014897552 -0.00040727344 7.520833e-05 0.0002414377 0.00013116811 0.00017653438 7.333856e-05
-3.116792e-05 2.3894556e-05 -1.1478377e-05 -0.0001323323 1.3432494e-05 -9.073039e-05 0.00019207555 -0.00014980695
0.0002170362 0.00025339302 -0.00010934517 3.7780454e-05 -0.00014620993 3.4750996e-05 -0.00015745992 0.00011865705
-1.8402108e-05 0.00019927713 -2.8611428e-05 0.00015362825 -9.8230485e-05 0.00011854343 8.638409e-05 0.00017305373
8.124325e-05 -7.778046e-05 0.00025818733 0.00022155792 -4.7283298e-05 -5.4588345e-05 8.881161e-05 -0.00013724693
0.00016809754 -5.9744285e-05 1.8133196e-05 8.643227e-05 -1.4683063e-05 -2.4661505e-05 -0.00027924575 0.00015779563
-0.00017155659 0.00027782572 3.7010985e-05 6.332688e-05 0.00011750348 -0.00014081901 -0.00019989623 0.0001643198
-0.00041290896 0.00064650667 6.388822e-05 0.00014355767 1.2305313e-05 0.0003327297 0.00012825291 -5.041002e-05
6.662521e-05 0.00010504667 -0.0011301208 -0.0020331023 -0.007390889 -0.00095294474 0.0001025461 0.0049414607
-0.0012212237 0.003250317 -0.00017084397 -0.0012032258 6.724566e-05 -9.899606e-05 2.2664024e-05 -9.0770394e-05
0.00013720001 -0.00087294454 -0.0009655334 3.5382505e-05 7.979382e-05 -6.733694e-05 0.0001838404 -0.014976698
-1.0665849e-05 -0.0018129235 0.00104173 -0.0023932362 0.0038121298 -7.0665934e-05 -0.18405734 -7.496473e-05
-0.00078975037 -0.00033009937 0.0010875224 -0.0021313059 6.245059e-05 -0.0033664398 -9.021311e-05 1.0237449e-05
00000000: 2df2 e838 fb94 89b9 a49c e2b8 e2bc 8638
00000010: 7593 0d38 b9e7 a239 8c8c b338 4074 2cb8
00000020: a418 61b7 1641 38b7 73a0 03b8 1bbc 1f39
00000030: c1d0 b238 6d97 c536 e293 77b8 bfaf 62b8
00000040: b9e7 81b9 9cbd 9637 ead8 5138 116f a238
00000050: 1128 0139 3109 6739 c935 9e38 a6d0 2eb9
00000060: 7b4a 99b8 f24c 8db5 fd96 a638 5b5e 5936
00000070: 1d4a 7b38 3e85 1eb9 6c36 a3b9 eb23 bdb8
00000080: 4f59 d7b8 122f d239 e8e8 f638 915f 9338
00000090: b0ae 25b8 9cee 0837 4d0f 2c39 242b e9b9
000000a0: 8ab1 8b38 ce7a be38 c49c e039 db13 e038
000000b0: 94a1 f538 cc01 ec36 97ee a739 8020 8739
000000c0: 1d6e a839 04d7 efb8 1019 2139 012f afb8
000000d0: e1a4 7138 ac56 c638 6463 1d38 acb2 e5b6
000000e0: 2670 5e38 2884 28b7 44c6 2338 2896 f238
000000f0: 9b31 c838 d94c dcb8 decd 9439 c303 2bb8
00000100: 322c 9ab8 5a87 2a38 4c73 1138 8f1c a0b6
00000110: bcf0 b2b5 e472 4db9 9fe8 b7b8 2e56 9f38
00000120: 9416 01b8 988a f4b4 07a7 9d38 b454 3437
00000130: 2ce4 d5b8 c2d7 39b9 a03b 6ab8 53b0 8139
00000140: 2601 7c39 d35b aa38 4405 1339 ef14 9139
00000150: a5ef b037 b689 1b37 42c6 edb8 61db 99b9
00000160: 634b 6db9 a150 1138 ce10 6db9 b50c ca39
00000170: e763 1539 9327 2db9 d718 17b9 b0bd cc38
00000180: 1139 7b39 0b5b 8db9 531e 2438 9de8 6db8
00000190: e3ac b9b6 15ba 3337 44a3 dc38 d02f 9439
000001a0: 0fda 3c39 bfa0 cb38 67b1 0539 e0ca 7238
000001b0: cae2 3337 c933 1838 f3d7 27b9 ff69 64b9
000001c0: aff3 3db9 9144 0fb7 e99c c2b8 2ae0 b135
000001d0: 86c5 7fb9 c272 bc38 4ec9 86b8 4703 1739
000001e0: e2d6 2e39 70db 4739 3186 85b7 6844 edb8
000001f0: a4bc 1db8 3e32 6337 3ab7 35b8 d6e3 9ab8
00000200: 8b2b d138 b8d6 20b9 787d 1ab9 f985 8fb8
00000210: 9160 39b9 eba0 4f39 4eb9 4b38 21d5 0339
00000220: 4d27 61b8 74d0 02b9 cbe0 5737 4016 8ab9
00000230: f8cc 7138 9b7a c838 6971 a9b9 f484 aab8
00000240: 6ebe 7036 383a 8338 6494 3db9 2a97 6238
00000250: ccf4 f638 16da 1cb9 f2d2 1639 b225 7838
00000260: 07dd 02b9 5036 1cb9 5187 d5b9 2ab9 9d38
00000270: 702a 7d39 2c8a 0939 161c 3939 57cd 9938
00000280: 4dba 02b8 2b71 c837 4193 40b7 aec2 0ab9
00000290: 1f5c 6137 8246 beb8 e367 4939 7f15 1db9
000002a0: 3694 6339 d6d9 8439 3e50 e5b8 7476 1e38
000002b0: ee4f 19b9 99c1 1138 d31b 25b9 85d7 f838
000002c0: 3a5e 9ab7 0cf5 5039 9302 f0b7 4517 2139
000002d0: 1701 ceb8 859a f838 1b29 b538 c275 3539
000002e0: 2361 aa38 111e a3b8 515d 8739 0052 6839
000002f0: 0e52 46b8 caf5 64b8 5f40 ba38 f1e9 0fb9
00000300: 5743 3039 f095 7ab8 be1c 9837 f942 b538
00000310: 4657 76b7 2ee0 ceb7 bb67 92b9 f175 2539
00000320: dfe3 33b9 23a9 9139 3e3c 1b38 5cce 8438
00000330: 336c f638 d1a8 13b9 3c9b 51b9 434d 2c39
00000340: b47b d8b9 547a 293a bafb 8538 f887 1639
00000350: eb72 4e37 3972 ae39 a17b 0639 596f 53b8
00000360: 23b9 8b38 804c dc38 9020 94ba cc3d 05bb
00000370: 452f f2bb 0acf 79ba 050e d738 faeb a13b
00000380: 7811 a0ba 4503 553b 9424 33b9 8fb5 9dba
00000390: 3d06 8d38 1b9c cfb8 9f1e be37 fc5b beb8
000003a0: 59dd 0f39 51d6 64ba da1b 7dba ad67 1438
000003b0: fb56 a738 3f37 8db8 48c5 4039 d360 75bc
000003c0: 79f1 32b7 9e9f edba a98a 883a d7d7 1cbb
000003d0: edd4 793b 7c32 94b8 8779 3cbe 6236 9db8
000003e0: 4007 4fba 3011 adb9 328b 8e3a 61ad 0bbb
000003f0: e8f7 8238 7d9f 5cbb cb30 bdb8 82c1 2b37

rnn.weight_hh_l0 f4 [96, 32]
-0.00011372494 4.8478272e-05 -0.00010584763 -0.00013338786 1.3259452e-05 8.78045e-05 -2.6082587e-05 -3.3619428e-05
-0.00023484473 0.00013354223 0.00020917728 -0.00015833195 2.6446982e-05 -1.6700085e-05 -4.1061543e-05 -9.3347706e-05
0.00036482562 -1.32942805e-05 -1.5815927e-05 4.5497556e-05 0.00013563792 0.00015218901 -0.00015938471 4.547181e-05
-2.8337627e-05 2.2619513e-05 -0.000135894 -5.4679847e-05 0.00016952082 -0.00017671683 0.00018184695 -2.2296428e-05
-5.259701e-05 -0.00016000368 0.00010329436 0.00016502217 -0.00010425483 -3.1691765e-05 -1.3074049e-05 0.00010195673
-8.921512e-06 2.5167487e-06 -0.00015589224 -0.00010612294 -9.198274e-05 -7.832462e-06 -7.741737e-05 -7.221165e-05
-0.00010351634 0.00015202224 7.320562e-05 0.00015825134 -0.00027448044 -9.628316e-05 -0.00019583346 -0.00027284282
-7.733477e-05 3.821016e-05 -0.0002678316 -0.00011072995 4.8733716e-07 0.0002058307 -0.00016873483 -0.0001225731
0.00019016063 -1.3870402e-05 0.004818005 6.2315326e-06 6.257874e-05 -1.2726359e-05 -0.00019252159 0.010566435
-4.96289e-05 -9.5728275e-05 -7.09866e-05 -8.526636e-05 -0.00012085562 -0.00015423248 -0.0076365294 0.00015115127
7.532493e-05 0.0001638772 -0.00018619395 -3.66842e-05 -4.63589e-05 7.723626e-05 -0.00020661906 0.0011406393
-0.00289386 8.7191176e-05 0.00019374002 -4.4498232e-05 -0.00023841395 -0.00088596967 -8.366772e-05 0.00010468517
0.0001591646 -3.447097e-05 -6.3378124e-05 -2.9776707e-05 4.309306e-05 -0.000101172714 5.9645376e-05 -1.40391e-06
0.00026408158 0.00015381246 8.02714e-05 -2.885078e-05 -4.170456e-05 0.00011055161 8.218778e-05 -6.5794366e-06
6.031995e-05 -8.723318e-05 0.0001940517 4.03932e-05 -3.7782953e-05 -3.004692e-06 -0.00032332953 -0.00013770543
-1.3726277e-05 -4.93469e-05 -0.00024837157 9.012636e-05 -6.705555e-05 0.00015279173 0.00010781541 0.00016403662
8.148847e-06 7.3872034e-05 4.9219584e-06 -0.00011043821 1.3021415e-05 -0.00016357456 -2.8266988e-05 -0.00018186613
5.1377654e-05 -8.670205e-05 2.0461875e-06 6.2396655e-05 0.00012246781 0.0002539833 7.355588e-05 -9.2762166e-05
1.1776464e-05 0.00023977162 7.110016e-05 0.00013913246 -5.3829346e-05 3.6587902e-05 3.4859431e-06 -8.9084315e-05
-0.0001413567 3.2102987e-06 -0.00029802753 6.442991e-05 3.9158833e-05 -0.00014445107 0.00023499326 -0.00021768472
-0.00018802189 -4.2668926e-05 0.00011444196 -5.1460906e-05 4.9175833e-05 -3.5284836e-05 2.3355433e-05 -0.00017618139
8.134082e-05 3.8299335e-05 -0.00023855243 6.232309e-05 0.00023965312 0.00017515391 -2.6329706e-05 0.00012526686
-8.704275e-05 -7.065429e-05 -3.9707054e-05 4.9532675e-05 4.851462e-05 9.1899194e-05 0.00014303932 0.00020471631
-0.00015772608 7.813254e-05 -0.00027357243 2.0428748e-05 0.00012137482 -0.00040380494 -6.056203e-06 -0.00014177214
4.4833512e-05 -8.3613006e-05 9.061406e-06 1.856404e-05 0.00010411842 -1.5681917e-05 -4.049381e-05 6.846356e-05
-0.00010749196 8.132792e-05 5.3263335e-05 -7.575219e-06 -5.9451236e-06 9.177514e-05 4.771181e-05 -7.221744e-05
9.6158365e-05 5.3636642e-05 -7.961329e-05 0.00019157154 -5.757905e-05 8.2038925e-05 -6.0523424e-05 0.0001097362
8.177426e-05 0.00022411905 6.608309e-05 -0.0001046607 0.00017949879 8.5417196e-05 -5.8573976e-05 0.00012492966
-8.164709e-05 -0.00013996882 -0.002023174 -9.993512e-05 -0.00014329086 1.6684206e-05 3.650413e-05 0.006104891
0.00045835756 0.00021291603 -0.00014880573 -0.000102689744 -0.000109506145 6.325281e-05 -0.005821397 -0.00016673678
-4.559071e-05 0.00031661705 -0.00011147277 0.00014675314 -0.00014234347 9.888889e-05 -0.00010208755 0.0012148723
0.0010018126 -1.8735707e-05 9.60616e-05 4.3292195e-05 1.8222785e-05 -0.0032738356 3.6247988e-05 -9.895664e-05
00000000: 9d7f eeb8 2655 4b38 83fa ddb8 08de 0bb9
00000010: ea74 5e37 af23 b838 eecb dab7 9602 0db8
00000020: a740 76b9 7807 0c39 9956 5b39 e905 26b9
00000030: 76da dd37 2917 8cb7 7f39 2cb8 abc3 c3b8
00000040: 1146 bf39 800a 5fb7 72ac 84b7 a1d4 3e38
00000050: 073a 0e39 ed94 1f39 8220 27b9 fcb8 3e38
00000060: 97b6 edb7 09bf bd37 c57e 0eb9 0a58 65b8
00000070: 66c1 3139 104d 39b9 2bae 3e39 3709 bbb7
00000080: 9c9b 5cb8 a9c6 27b9 bd9f d838 cd09 2d39
00000090: 63a3 dab8 c6ec 04b8 9d58 5bb7 9ad1 d538
000000a0: 9aad 15b7 6ae5 2836 0177 23b9 528e deb8
000000b0: dce6 c0b8 2b68 03b7 225b a2b8 5670 97b8
000000c0: e916 d9b8 2968 1f39 f885 9938 45f0 2539
000000d0: 24e8 8fb9 a1eb c9b8 a558 4db9 580c 8fb9
000000e0: ca2e a2b8 d943 2038 c06b 8cb9 b037 e8b8
000000f0: 8ed1 0235 42d4 5739 69ee 30b9 f786 00b9
00000100: db65 4739 ecb4 68b7 5be0 9d3b 7518 d136
00000110: b53c 8338 4c83 55b7 9fdf 49b9 d71e 2d3c
00000120: a028 50b8 bac1 c8b8 a4de 94b8 07d1 b2b8
00000130: de73 fdb8 77b9 21b9 da3b fabb 5c7e 1e39
00000140: c4f7 9d38 73d6 2b39 0f3d 43b9 5cdd 19b8
00000150: 7d71 42b8 e7f9 a138 e2a7 58b9 8181 953a
00000160: eaa6 3dbb 68da b638 b126 4b39 9da3 3ab8
00000170: c2fe 79b9 6b40 68ba c476 afb8 6c8a db38
00000180: 6ce5 2639 ec94 10b8 dfe9 84b8 fec8 f9b7
00000190: d2be 3438 b02c d4b8 bc2b 7a38 fb6d bcb5
000001a0: 6e74 8a39 b848 2139 6157 a838 9404 f2b7
000001b0: eeeb 2eb8 f2d7 e738 3a5c ac38 eec4 dcb6
000001c0: 0e00 7d38 f5f0 b6b8 5b7a 4b39 de6b 2938
000001d0: 2379 1eb8 37a4 49b6 8e84 a9b9 0565 10b9
000001e0: e949 66b7 d5f9 4eb8 de37 82b9 3902 bd38
000001f0: 2da0 8cb8 b836 2039 f51a e238 3f01 2c39
00000200: 08b7 0837 bfeb 9a38 4d27 a536 109b e7b8
00000210: 8d76 5a37 3685 2bb9 e51e edb7 51b3 3eb9
00000220: 567e 5738 cfd3 b5b8 3c51 0936 f3da 8238
00000230: b46a 0039 1029 8539 0342 9a38 4f89 c2b8
00000240: 8793 4537 346b 7b39 9c1b 9538 16e4 1139
00000250: d2c6 61b8 f675 1938 0cf0 6936 c7d2 bab8
00000260: 2639 14b9 8370 5736 9440 9cb9 8b1e 8738
00000270: 7a3e 2438 ca77 17b9 8668 7639 4c42 64b9
00000280: be27 45b9 69f7 32b8 8f00 f038 bad7 57b8
00000290: 2642 4e38 cefe 13b8 69eb c337 55bd 38b9
000002a0: 8595 aa38 99a3 2038 ee23 7ab9 74b3 8238
000002b0: 654b 7b39 85a9 3739 9dde dcb7 115a 0339
000002c0: b88a b6b8 3c2c 94b8 208b 26b8 4ec1 4f38
000002d0: 2d7c 4b38 01ba c038 d3fc 1539 1ea9 5639
000002e0: 4663 25b9 17db a338 456e 8fb9 675e ab37
000002f0: 9c8a fe38 c8b5 d3b9 6336 cbb6 aba8 14b9
00000300: 9e0b 3c38 6459 afb8 7106 1837 f9b9 9b37
00000310: 275a da38 a98c 83b7 e6d7 29b8 1894 8f38
00000320: 4e6d e1b8 988e aa38 1267 5f38 a32e feb6
00000330: 397c c7b6 6777 c038 2a1e 4838 7173 97b8
00000340: a1a8 c938 e8f7 6038 0ff6 a6b8 98e0 4839
00000350: 0981 71b8 500c ac38 88da 7db8 2c22 e638
00000360: 397e ab38 8001 6b39 1796 8a38 497d dbb8
00000370: d737 3c39 0222 b338 54ad 75b8 8dff 0239
00000380: f339 abb8 98c4 12b9 3a97 04bb 4294 d1b8
00000390: 5940 16b9 0ff5 8b37 031c 1938 8a0b c83b
000003a0: b64f f039 3642 5f39 bc08 1cb9 235b d7b8
000003b0: aaa6 e5b8 98a6 8438 6bc1 bebb 10d6 2eb9
000003c0: a738 3fb8 9fff a539 7dc6 e9b8 bfe1 1939
000003d0: 0942 15b9 9262 cf38 d617 d6b8 5a3c 9f3a
000003e0: 414f 833a a02a 9db7 ae74 c938 a494 3538
000003f0: 22dd 9837 d98d 56bb fb08 1838 f186 cfb8

rnn.bias_ih_l0 f4 [96]
-2.4798721e-05 6.1825455e-07 0.07824569 0.0001481284 5.279834e-05 6.6768946e-05 -4.77423e-05 0.115951434
7.791999e-05 -7.182074e-06 -0.0002264363 3.2425873e-05 -3.6218014e-05 1.5401732e-06 0.0001344421 -3.0087685e-06
9.786979e-05 7.50095e-05 0.0001241515 0.00022506258 -8.671105e-05 6.6952765e-05 0.00016646147 0.023453819
-0.00044037873 -2.63652e-05 3.3447996e-05 -6.441944e-05 3.6116493e-05 0.0015932312 -6.281831e-05 8.357559e-05
0.00017767155 0.00013811496 -0.00013349559 -8.49812e-06 5.449858e-05 0.00014878965 3.1287578e-05 0.0670028
-3.7536072e-05 -0.00013491123 4.389471e-05 -8.699378e-05 -3.2824744e-05 -0.0002316074 -0.0008969881 7.921022e-05
-6.586792e-05 -4.260827e-05 8.67516e-06 -4.9050883e-05 0.00016324336 0.00016010893 -1.5740262e-06 0.019719085
-0.001947182 -2.8963432e-05 0.0001364152 4.08662e-05 -5.7128593e-05 0.19412751 -0.00015830118 -0.00013271213
0.00046682332 0.000104316365 -0.008662002 -6.86045e-05 -0.00010358473 1.5920032e-05 -0.000112169895 -0.0024065473
-0.0001266025 -5.259544e-05 -0.00015306786 5.7081143e-05 -9.66266e-05 -7.3399286e-05 0.010561077 -0.000120181365
-0.00019169383 0.00014433134 -0.00014958768 0.00020627512 0.0002583164 -4.234727e-05 -0.00021135523 -0.028042251
0.22133704 -9.486393e-05 2.8886827e-06 0.000119063036 2.6677471e-05 -0.0076674297 0.000108202665 -1.3919895e-05
00000000: d906 d0b7 21f6 2535 473f a03d ea52 1b39
00000010: c973 5d38 4e06 8c38 e73e 48b8 f277 ed3d
00000020: fa68 a338 8cfd f0b6 886f 6db9 0401 0838
00000030: cce8 17b8 f3b7 ce35 07f9 0c39 40ea 49b6
00000040: 723f cd38 6b4e 9d38 aa2e 0239 c7fe 6b39
00000050: a4d8 b5b8 fe68 8c38 298c 2e39 3922 c03c
00000060: a2e2 e6b9 d62a ddb7 834a 0c38 ec18 87b8
00000070: ca7b 1738 f8d3 d03a 53bd 83b8 4e45 af38
00000080: 584d 3a39 f4d2 1039 f3fa 0bb9 2693 0eb7
00000090: 6895 6438 6b04 1c39 c83a 0338 c438 893d
000000a0: 0d70 1db8 f576 0db9 961b 3838 6e70 b6b8
000000b0: 4dad 09b8 a3db 72b9 da23 6bba aa1d a638
000000c0: 9222 8ab8 48b6 32b8 878b 1137 fcbb 4db8
000000d0: 4e2c 2b39 eae2 2739 2143 d3b5 eb89 a13c
000000e0: 9638 ffba 7ff6 f2b7 ad0a 0f39 c067 2b38
000000f0: 5c9d 6fb8 5dc9 463e a6fd 25b9 a428 0bb9
00000100: f7bf f439 6cc4 da38 12eb 0dbc c3df 8fb8
00000110: a13b d9b8 028c 8537 c13c ebb8 2ab7 1dbb
00000120: 9ac0 04b9 ec99 5cb8 d780 20b9 696a 6f38
00000130: 03a4 cab8 f1ed 99b8 5e08 2d3c e109 fcb8
00000140: 6c01 49b9 a657 1739 a3da 1cb9 8e4b 5839
00000150: a46e 8739 099e 31b8 3d9f 5db9 ddb8 e5bc
00000160: 2da6 623e aff1 c6b8 31db 4136 7bb1 f938
00000170: 6fc9 df37 103f fbbb ddea e238 7e89 69b7

rnn.bias_hh_l0 f4 [96]
0.00018559623 2.9692665e-05 0.06865497 -0.00011829474 0.00016014017 0.00010753803 0.00010666125 0.113522485
0.00023362924 -2.4068868e-05 0.00017924723 0.00011371977 0.00043913405 0.00028394273 0.00025905095 0.000113426395
-3.156704e-05 -0.0001066142 -0.00022652114 -9.467664e-05 4.5172754e-05 -0.00018944268 -0.00018246798 0.032244254
-0.00045692 8.095665e-05 -5.982406e-05 -6.4177984e-05 -7.1918286e-05 0.0015959248 6.1158964e-05 1.2477917e-06
-3.630182e-05 2.4612302e-05 -8.367334e-05 0.0001119938 -0.00015998285 -0.00014251594 -1.0691665e-05 0.06741011
-0.00014735664 0.00015267488 -4.2235286e-05 0.00029099348 4.8634014e-05 -0.0001751379 -0.00090933486 -8.839417e-05
6.0542174e-05 0.000107600856 0.00019712021 -0.00015041298 9.621109e-05 -0.000165649 -5.8135105e-05 0.019790068
-0.0019471289 -8.565046e-05 -0.000102499595 2.1799651e-05 -4.6673562e-05 0.19417168 -8.510973e-05 -4.5156634e-05
-0.00015702264 6.2036e-05 -0.065539435 0.00024413623 -0.00027630496 -0.00014627016 2.1527185e-06 -0.0005144145
-0.00014055349 -2.6462656e-05 4.1994204e-05 -0.00013220875 -0.00026171256 -8.653633e-05 0.009514947 7.2745793e-06
0.00020332409 -5.464948e-05 -6.137433e-05 -0.00020014681 0.000102324935 -0.00019684657 0.00015841048 -0.0842152
0.015776152 2.1492957e-05 -2.4636083e-05 -0.00015908598 -3.081212e-05 0.0010489944 -7.22796e-05 -3.508955e-05
00000000: 9c9c 4239 8314 f937 fa9a 8c3d 0115 f8b8
00000010: 4deb 2739 0a86 e138 53af df38 7a7e e83d
00000020: 5ffa 7439 80e7 c9b7 50f4 3b39 d67c ee38
00000030: 933b e639 26de 9439 3bd1 8739 55df ed38
00000040: da66 04b8 1096 dfb8 4e86 6db9 228d c6b8
00000050: e077 3d38 22a5 46b9 e054 3fb9 8d12 043d
00000060: c48e efb9 45c7 a938 98eb 7ab8 4b97 86b8
00000070: d6d2 96b8 5a2e d13a 7842 8038 cc79 a735
00000080: c842 18b8 8476 ce37 c879 afb8 37de ea38
00000090: 12c1 27b9 5570 15b9 5a60 33b7 500e 8a3d
000000a0: bf83 1ab9 5a17 2039 cb25 31b8 7c90 9839
000000b0: 60fc 4b38 39a5 37b9 6e60 6eba 4260 b9b8
000000c0: aaee 7d38 c5a7 e138 0eb2 4e39 2db8 1db9
000000d0: f0c4 c938 11b2 2db9 18d6 73b8 c81e a23c
000000e0: ce36 ffba 3e9f b3b8 0df5 d6b8 65de b637
000000f0: 5bc3 43b8 f1d4 463e f07c b2b8 9166 3db8
00000100: 72a6 24b9 5319 8238 8a39 86bd d2fe 7f39
00000110: 06dd 90b9 1960 19b9 6c77 1036 c6d9 06ba
00000120: 8a61 13b9 1ffc ddb7 ef22 3038 84a1 0ab9
00000130: 7736 89b9 d77a b5b8 95e4 1b3c 2918 f436
00000140: 6533 5539 6f37 65b8 18b6 80b8 80de 51b9
00000150: 4897 d638 9968 4eb9 fd1a 2639 0579 acbd
00000160: fd3c 813c c64b b437 96a9 ceb7 51d0 26b9
00000170: 433c 01b8 697e 893a d194 97b8 1e2d 13b8

fc1.weight f4 [1, 32]
0.00015906307 5.3647804e-05 -2.0279107 3.105585e-05 -0.00018474962 -0.0001238956 -8.076536e-05 -0.71810234
-0.0003223626 -0.00018550915 0.00019395752 -6.802156e-05 5.0107774e-05 1.9703282e-05 -0.94009405 0.000115186434
-0.00020632421 -0.00016198894 0.00020807343 3.1451516e-05 2.5582485e-05 0.000112888745 0.00018088282 1.1304555
-1.0699072 3.2770567e-05 0.00028258975 0.00015961037 0.0005412381 -2.6287541 0.000112427595 0.00034615598
00000000: 2bca 2639 e403 6138 4ac9 01c0 f741 0238
00000010: 59b9 41b9 f9e9 01b9 9360 a9b8 8ed5 37bf
00000020: c702 a9b9 3c85 42b9 1361 4b39 cca6 8eb8
00000030: d02a 5238 7a48 a537 01aa 70bf 3f90 f138
00000040: bc58 58b9 93db 29b9 492e 5a39 cfea 0338
00000050: f899 d637 afbe ec38 5dab 3d39 c4b2 903f
00000060: b8f2 88bf 2173 0938 8e28 9439 155d 2739
00000070: e0e1 0d3a 823d 28c0 1bc7 eb38 457c b539
