model_with_modified_loss_and_spl.pt (torch, 54627 bytes, 5 tensors)

rnn.weight_ih_l0 f4 [96, 104]
000000 b4 f7 47 b5 f5 16 c9 b8 73 7d cf 37 c4 f7 88 b8
       -7.449373e-07 -9.588703e-05 2.473474e-05 -6.531135e-05
000010 04 da b3 36 aa 21 45 39 27 4d 58 39 04 76 a8 39
       5.359996e-06 0.00018799925 0.00020628107 0.00032131386
000020 ec 94 eb b8 2c 2f 05 b9 7b 60 8a b8 4e 47 3f b9
       -0.00011233412 -0.00012701441 -6.598324e-05 -0.00018241743
000030 db 49 2e 39 87 eb 40 b9 e5 89 a9 38 35 68 41 b9
       0.00016621446 -0.00018398288 8.084233e-05 -0.00018444734
000040 82 23 e3 39 70 39 a4 b8 61 e9 0b b9 78 1e b9 38
       0.0004332327 -7.830828e-05 -0.00013343013 8.827163e-05
000050 d7 d9 85 b7 84 99 7c b8 aa ba 94 39 b2 ac b6 38
       -1.5956275e-05 -6.0224455e-05 0.00028367835 8.710603e-05
000060 9e 2d df b6 89 09 26 b9 57 eb 88 39 a6 f7 56 b8
       -6.6512284e-06 -0.00015834546 0.00026115283 -5.1252217e-05
000070 df 0d 8e b9 ca e1 65 b8 5a e3 b1 b8 ac f9 27 39
       -0.00027094685 -5.4808137e-05 -8.482365e-05 0.00016019371
000080 49 f9 7c b9 04 3b e6 38 8d fb 14 39 22 6e b9 38
       -0.00024125459 0.00010978247 0.0001420809 8.842001e-05
000090 fe b8 d0 38 72 d7 d1 b8 14 84 fa 38 70 e8 97 38
       9.9526704e-05 -0.000100060264 0.000119455304 7.243536e-05
0000a0 4e 75 8f 38 32 42 03 37 7a 47 8a 38 97 61 18 39
       6.840621e-05 7.823621e-06 6.593666e-05 0.00014532205
0000b0 85 2d 33 b9 cf 63 87 38 2b 35 87 38 9a cf 7a 35
       -0.00017087728 6.4558924e-05 6.447205e-05 9.343436e-07
0000c0 5c 31 3a b8 ba ae 09 b9 98 27 dc 38 3a 25 0c b9
       -4.4391825e-05 -0.00013130429 0.000104977924 -0.00013365308
0000d0 83 d1 26 38 68 8d e5 b7 2b 49 a9 b8 e7 1e f7 38
       3.9772607e-05 -2.7364775e-05 -8.0721766e-05 0.00011783634
0000e0 1f 5b 86 b8 b1 29 f5 38 06 24 eb 38 8d de ff 38
       -6.4065905e-05 0.00011690276 0.00011212383 0.00012200801
0000f0 09 c7 bb 37 5d cf aa 38 41 27 7c 38 5d 41 44 38
       2.238482e-05 8.144856e-05 6.011804e-05 4.6790916e-05
000100 e0 83 09 37 74 78 47 39 c9 fd f0 b9 72 f1 f5 b8
       8.196541e-06 0.00019022991 -0.00045965452 -0.00011727483
000110 60 89 6c b8 2e eb 3b b9 c2 5c 72 b8 c6 00 1a b9
       -5.6394725e-05 -0.00017921321 -5.7783684e-05 -0.00014686873
000120 86 4a 40 39 8d 73 8d 36 b6 72 70 37 64 7f 2b 36
       0.00018338309 4.2155793e-06 1.4331823e-05 2.5555137e-06
000130 54 01 08 39 e1 b4 79 b8 aa e5 d5 38 e3 ef 6d b9
       0.00012970465 -5.9534683e-05 0.0001019941 -0.00022691446
000140 b9 98 1a 39 b8 bd c9 b7 a6 08 43 b9 9f 74 0f 38
       0.00014743478 -2.4049412e-05 -0.00018599871 3.420247e-05
000150 c2 47 83 b7 47 01 42 39 66 67 2b 39 b7 85 08 39
       -1.5649832e-05 0.00018501758 0.0001634635 0.00013019783
000160 88 2a 96 37 e0 ec dc 38 f5 9c c5 38 3e 9a 93 39
       1.7901199e-05 0.00010534539 9.4229275e-05 0.00028152944
000170 aa 47 00 38 e0 9c 1d 39 ed 30 28 39 50 ae 79 b7
       3.058432e-05 0.00015031127 0.00016039955 -1.4882142e-05
000180 33 b0 2a 38 f3 2c cf 38 df da e2 b8 47 2c 1e 39
       4.0695257e-05 9.8789016e-05 -0.00010817288 0.00015084549
000190 28 13 e9 b8 f2 92 35 38 50 97 78 38 61 21 ac 38
       -0.00011113874 4.3290616e-05 5.926873e-05 8.2078164e-05
0001a0 9b cc ec b7 f2 ad b2 37 87 35 f5 35 1a 71 2e b8
       -2.822867e-05 2.1300253e-05 1.8269501e-06 -4.1590167e-05
0001b0 bc 58 64 38 3e 0b 13 b8 28 6d 04 b9 63 29 84 38
       5.4442076e-05 -3.5058e-05 -0.00012629165 6.3019594e-05
0001c0 b0 76 ba 37 88 65 ea b8 f5 d1 8b 38 e9 6a df b8
       2.2228196e-05 -0.00011176901 6.667144e-05 -0.00010653382
0001d0 c2 57 0c 37 7d 6d d1 37 2d 5b 1e 37 de 1b 6c b9
       8.365083e-06 2.4965726e-05 9.438762e-06 -0.00022517095
0001e0 28 5b 12 38 3b 33 fc b7 61 ba 25 b9 02 66 79 37
       3.489401e-05 -3.0064597e-05 -0.00015805058 1.4865307e-05
0001f0 59 26 6e 38 b3 e4 f7 38 1a eb 10 b8 01 4d 15 b9
       5.6779336e-05 0.00011820476 -3.455123e-05 -0.00014238434
000200 4c 23 3f 39 9a f9 41 39 44 f3 9e b7 8a 94 6f b9
       0.00018228329 0.00018498898 -1.8948347e-05 -0.00022848151
000210 48 f7 58 b9 89 46 19 b9 15 3b e6 b7 90 3b a9 38
       -0.00020691485 -0.00014617493 -2.7445649e-05 8.069642e-05
000220 aa a9 94 b8 d3 96 a1 38 04 68 bb 38 df b9 41 b9
       -7.088792e-05 7.7051714e-05 8.936229e-05 -0.00018475157
000230 8f 88 2f b9 84 31 a4 38 ad 85 1e b9 2d 85 5c b9
       -0.00016740173 7.8293524e-05 -0.00015117852 -0.00021030447
000240 45 67 39 38 69 fb 87 b8 fa 2c 01 b9 74 f7 c2 36
       4.4203614e-05 -6.4841304e-05 -0.00012319154 5.810458e-06
000250 ce d4 80 b9 7b 14 06 b9 1d fb 21 39 d9 94 7a b8
       -0.00024572614 -0.00012786865 0.00015447703 -5.974327e-05
000260 d4 6c ac 38 b9 60 ea b8 3e 52 4d b8 a6 54 5d 38
       8.22187e-05 -0.000111760055 -4.8952403e-05 5.276934e-05
000270 ae b2 23 36 11 5f c7 b8 65 e8 07 b9 61 41 cb 37
       2.4392898e-06 -9.506767e-05 -0.00012961177 2.422993e-05
000280 52 f8 9d 38 0e a5 12 b9 ca dd 0e 37 e6 a2 a7 39
       7.532597e-05 -0.00013985133 8.515499e-06 0.0003197409
000290 38 e7 06 38 17 ab fb 38 eb b7 5b 38 b2 b8 12 39
       3.216343e-05 0.00012000481 5.2384956e-05 0.0001399245
0002a0 9f ad cd b8 30 71 0c 39 d0 b8 65 38 fc d3 56 39
       -9.807501e-05 0.00013393606 5.4769975e-05 0.000204876
0002b0 49 1c 88 39 5a 9d a5 39 5f 0e df b8 13 e7 19 b9
       0.00025961015 0.00031588488 -0.000106361455 -0.00014677299
0002c0 ef a3 9c b7 1e c2 fe 38 10 00 59 b8 0a 6f 1d b8
       -1.8672987e-05 0.00012147821 -5.173689e-05 -3.753513e-05
0002d0 3a 27 3d 37 a5 f0 12 b9 1b c3 f4 b8 da e8 0b b6
       1.1274411e-05 -0.00014013292 -0.00011671168 -2.0848152e-06
0002e0 a0 6d 5d b9 85 1c b8 b7 49 31 a5 b9 42 ab 13 b8
       -0.00021117041 -2.194779e-05 -0.00031507973 -3.5207027e-05
0002f0 fa 88 cd b9 76 12 38 37 bf d6 aa b7 2f 47 4b b9
       -0.00039202702 1.0971553e-05 -2.0365578e-05 -0.00019386107
000300 93 2c 0c 39 7f 86 19 39 60 98 f2 b6 63 ce a4 b8
       0.00013368046 0.00014641321 -7.229901e-06 -7.858572e-05
000310 74 3d c3 b8 5d b8 b7 38 0c 9c 1c b9 be 1f a4 38
       -9.309771e-05 8.76046e-05 -0.00014935451 7.826042e-05
000320 ee 4c 4d 37 9d 15 b7 37 9b f7 54 39 71 75 f9 b7
       1.2236864e-05 2.1825364e-05 0.00020310136 -2.9737801e-05
000330 af 20 01 b9 92 ad 2f b8 99 9a ec 38 34 5a e4 b8
       -0.00012314574 -4.18849e-05 0.00011282153 -0.00010888689
000340 88 07 6d b8 52 84 c7 b7 34 f4 38 b9 b5 09 6d b7
       -5.6512217e-05 -2.3784265e-05 -0.0001763858 -1.4128561e-05
000350 03 9a 16 b7 c9 e6 e9 37 4c 24 56 b9 18 a0 20 b8
       -8.976555e-06 2.7883232e-05 -0.00020422152 -3.829607e-05
000360 91 76 53 b9 2b ac 87 39 fe 39 f0 b8 b9 30 1c b9
       -0.00020166698 0.00025877482 -0.00011454894 -0.0001489547
000370 3f d3 99 38 0b 4a d3 b8 54 d7 09 39 c3 b4 ca b8
       7.334956e-05 -0.000100750556 0.00013145554 -9.66578e-05
000380 a0 17 96 39 72 a7 10 b8 ce a8 48 b8 fc d3 34 39
       0.00028627831 -3.448822e-05 -4.7840927e-05 0.00017245108
000390 78 1c f2 38 55 e7 6d b9 0d 57 11 39 32 93 20 b9
       0.00011544762 -0.00022688259 0.00013860707 -0.00015313624
0003a0 1f d7 1c b9 0b 26 8c b8 48 05 83 b8 b3 5a e1 38
       -0.00014957458 -6.682806e-05 -6.2475505e-05 0.0001074573
0003b0 4c ba 8d b9 1e ec 24 b9 7f 28 27 b8 61 ed 8c b8
       -0.00027032418 -0.0001572822 -3.9853618e-05 -6.7199355e-05
0003c0 2a ef b3 b8 b2 b4 22 38 72 31 ed b8 22 4c ca b9
       -8.579933e-05 3.8792095e-05 -0.000113102506 -0.00038585166
0003d0 85 d4 5d 37 c9 26 62 38 92 53 7b 38 3c e3 08 37
       1.3222108e-05 5.391872e-05 5.9920894e-05 8.159139e-06
0003e0 e8 94 99 38 be e1 51 36 6e 58 90 b9 16 f5 a8 39
       7.3233445e-05 3.1274826e-06 -0.00027531706 0.0003222606
0003f0 ec f0 3a b9 7d c7 6d 39 70 ae a1 38 ee e9 2b 38
       -0.00017828093 0.00022676396 7.70957e-05 4.098744e-05

rnn.weight_hh_l0 f4 [96, 32]
000000 57 a7 96 b9 0d 07 b9 b9 ca d3 9b b8 7f ae 06 b9
       -0.00028734907 -0.00035291203 -7.430425e-05 -0.0001284424
000010 b9 78 98 38 32 61 31 b9 f4 aa 41 b6 ca f5 b2 37
       7.270411e-05 -0.00016916243 -2.885875e-06 2.1333708e-05
000020 4b 87 cf b8 c3 50 df b8 9d c4 e1 38 60 84 d0 36
       -9.8957295e-05 -0.00010648512 0.00010765458 6.2142935e-06
000030 a4 c5 bc 36 0d 4e 97 38 1c 60 a0 b8 a9 2a 9e 38
       5.625845e-06 7.214779e-05 -7.647296e-05 7.541973e-05
000040 75 7b d2 39 a1 27 11 37 91 a3 8a 39 2b 89 2a 39
       0.00040146304 8.6519e-06 0.00026443278 0.00016263562
000050 f6 41 38 39 bf 1c 2e b8 e5 c0 0c 39 d3 5f 1e b9
       0.0001757218 -4.1511605e-05 0.00013423299 -0.00015103752
000060 05 19 2c 39 21 ef ac 38 27 25 c0 b7 fa 6e 09 38
       0.00016412519 8.24614e-05 -2.2905484e-05 3.27667e-05
000070 d8 1c c8 38 17 a4 31 38 8a 55 08 39 bf 77 45 b8
       9.542116e-05 4.235291e-05 0.00013001836 -4.7079982e-05
000080 19 df 8b 38 28 d9 1a b9 dc bc 3e b9 8e ca ac 38
       6.669592e-05 -0.00014767481 -0.00018190168 8.239328e-05
000090 48 ba 81 b9 16 d8 0a 39 ee b0 fe 38 31 1a 25 39
       -0.00024743588 0.00013241204 0.000121446195 0.00015745383
0000a0 51 84 68 b8 5c ee 5b 39 1e bc 0c 39 78 cf 01 39
       -5.543634e-05 0.00020974263 0.0001342152 0.00012379687
0000b0 f7 c9 ce b8 79 89 fb 38 dc 6b 3c 38 48 b4 91 38
       -9.860464e-05 0.00011994219 4.4923145e-05 6.947719e-05
0000c0 b7 1b 87 39 e7 6e 16 b8 65 d3 19 b9 63 8e 81 38
       0.00025769856 -3.5866073e-05 -0.00014669968 6.177721e-05
0000d0 18 f7 a7 38 40 5f b1 38 a5 24 aa b4 d9 34 5d 38
       8.009205e-05 8.4577594e-05 -3.169163e-07 5.2739724e-05
0000e0 b0 49 20 b9 57 10 69 b8 ab 2f 54 37 59 d2 87 36
       -0.0001528624 -5.5566747e-05 1.2647283e-05 4.047801e-06
0000f0 d6 c2 5e b8 6e f3 3f 39 94 39 39 b9 3e 9a c5 b8
       -5.311038e-05 0.00018305864 -0.00017664424 -9.422422e-05
000100 65 2a 33 39 eb 4b 27 b9 95 b9 67 38 8d a3 f6 b5
       0.00017086563 -0.00015954643 5.524753e-05 -1.8376028e-06
000110 a7 9a 21 39 3a 55 0c 37 05 94 68 b8 a7 b7 99 b9
       0.00015411769 8.364494e-06 -5.5450964e-05 -0.00029319266
000120 d3 85 8c 38 ee 49 23 38 a6 68 90 37 5e 72 f3 38
       6.700647e-05 3.893108e-05 1.7214868e-05 0.000116084455
000130 a9 8b 3d 39 c6 41 b2 38 d8 b1 2a b9 2e 03 2c 39
       0.00018076472 8.499953e-05 -0.00016278715 0.00016404383
000140 61 52 cb b8 01 4c 11 b9 78 05 7e 39 6c 10 bd 39
       -9.6951386e-05 -0.00013856591 0.00024225365 0.00036061124
000150 f6 fe 17 b8 6d 76 8f b8 80 63 05 39 2b 3e 07 39
       -3.6238656e-05 -6.84083e-05 0.00012720935 0.00012897763
000160 f9 b2 86 38 6d 81 c1 b8 9e 34 8f 37 f3 3a 08 b6
       6.422954e-05 -9.2270646e-05 1.707143e-05 -2.0299892e-06
000170 8a 9e 99 38 cb a5 f1 38 b6 78 1a b9 99 a4 93 b8
       7.325139e-05 0.00011522657 -0.00014731553 -7.040165e-05
000180 a7 22 6e 39 32 0d c8 38 d6 ab cd 38 a4 9d cd 38
       0.00022710358 9.539201e-05 9.807169e-05 9.8045246e-05
000190 af 6f 74 b9 51 81 81 b8 5b bc 07 b9 33 0c 37 b9
       -0.00023311259 -6.1752864e-05 -0.00012944771 -0.00017456785
0001a0 10 a3 85 b8 68 07 17 38 85 64 9a b9 4f 4c a7 38
       -6.372307e-05 3.6008103e-05 -0.00029448062 7.977394e-05
0001b0 80 af b6 b8 ed b2 1e b9 03 75 51 39 f7 3d a1 b7
       -8.711126e-05 -0.00015134709 0.00019975383 -1.922155e-05
0001c0 21 5f 6f 38 89 8e 14 37 e0 17 8f b8 1c e4 26 39
       5.7070636e-05 8.854674e-06 -6.8232184e-05 0.00015915971
0001d0 fc 05 31 b7 c4 50 89 b9 51 4f cb 38 2c db 9e b5
       -1.05514155e-05 -0.0002619085 9.694568e-05 -1.1835705e-06
0001e0 43 65 22 b9 80 cb c0 37 5f 5f c3 36 f0 94 a7 b8
       -0.00015487247 2.2982946e-05 5.8225555e-06 -7.990922e-05
0001f0 0c b1 d2 38 7c 62 0c 39 9d 22 1d b9 76 9c 86 b8
       0.00010046558 0.00013388129 -0.00014985581 -6.418761e-05
000200 18 fb 2e b9 83 c2 b0 38 06 a4 89 b7 14 44 e4 38
       -0.00016687473 8.4285646e-05 -1.6408052e-05 0.00010884568
000210 71 61 50 38 78 75 fc 38 32 c6 06 b7 70 e9 9c b6
       4.9681814e-05 0.00012038177 -8.033168e-06 -4.676338e-06
000220 01 67 bd 38 70 d2 ea 38 c8 1d 9d b8 ed b8 ee 37
       9.031408e-05 0.000111971865 -7.4918906e-05 2.8457924e-05
000230 16 2f 5b 37 17 57 a1 37 a0 5c 02 39 ea 16 03 39
       1.306438e-05 1.923325e-05 0.00012432272 0.0001250167
000240 84 b8 11 b8 c9 44 95 38 61 47 3a 38 e7 17 8d b8
       -3.4742538e-05 7.117686e-05 4.4412332e-05 -6.727856e-05
000250 e3 92 63 38 04 9c 74 b7 e5 e7 1b 39 96 05 fe 38
       5.4257816e-05 -1.45798585e-05 0.0001486834 0.00012112704
000260 8b 95 cf b7 9f be 93 38 b6 46 bb 37 3a 57 e3 b8
       -2.474596e-05 7.045012e-05 2.2325064e-05 -0.00010840451
000270 af fb 03 39 b3 51 83 38 e4 31 70 36 51 0d 8b b9
       0.00012586893 6.2617844e-05 3.5791827e-06 -0.00026522067
000280 e1 73 f9 b7 29 4a bc b8 3e 5c 20 37 6d 29 8f 3a
       -2.9737073e-05 -8.978352e-05 9.55822e-06 0.001092238
000290 41 08 2a 38 9d 37 8d ba 76 b9 04 b9 d9 9a 42 38
       4.0538845e-05 -0.001077402 -0.0001265759 4.6397417e-05
0002a0 b3 9e 4c 3e 0e 4c f6 3a eb ae 13 b9 ba fc 8a 3b
       0.19982414 0.0018790977 -0.00014084174 0.004241553
0002b0 56 3b 29 38 25 d4 10 3c 5b 14 98 38 cc 4e fb b7
       4.0348e-05 0.008839642 7.251716e-05 -2.9958224e-05
0002c0 3c 25 84 38 c4 b1 37 b8 08 b5 33 bb 2c 23 31 b8
       6.301186e-05 -4.3796157e-05 -0.0027421135 -4.2232845e-05
0002d0 7c 9a 0b ba 38 79 1f b8 e9 45 08 b9 14 bb d7 3b
       -0.0005325449 -3.8021448e-05 -0.00012996014 0.0065835807
0002e0 7b 3c 92 b7 06 48 93 b7 73 d0 13 3b cb 18 8a 3c
       -1.743272e-05 -1.7557304e-05 0.0022554665 0.016857525
0002f0 9c 02 5d b8 e1 d3 b0 38 5a c4 2f 37 74 af 92 3c
       -5.2692936e-05 8.4317995e-05 1.04765295e-05 0.017905928
000300 d9 7a 97 b8 17 16 74 b7 51 a3 a5 38 92 d5 24 b9
       -7.223123e-05 -1.45486765e-05 7.898233e-05 -0.0001571982
000310 ee ee 75 b9 f6 ac 07 b9 3a 7b b3 37 77 3b 54 38
       -0.00023454029 -0.00012939036 2.1395845e-05 5.060012e-05
000320 3e 4a 38 b8 6a 4b 1f 39 4d bc f3 37 11 df 7c 38
       -4.3938162e-05 0.00015191516 2.9055542e-05 6.028923e-05
000330 b2 32 78 b8 fe 76 09 b9 4a d2 fb 37 4f 1a 93 b9
       -5.917502e-05 -0.00013109666 3.0019455e-05 -0.00028057626
000340 e7 52 94 b9 7a da bb b6 d1 e5 3a b8 1a 9b 44 b9
       -0.00028290527 -5.5984683e-06 -4.455989e-05 -0.00018749796
000350 68 9d bd 37 a9 8a 20 38 5b da 16 39 ef 47 0c 39
       2.2603854e-05 3.827611e-05 0.00014386458 0.00013378238
000360 b7 9a 67 39 eb ba 99 38 0d b9 53 b8 5b 12 e1 38
       0.00022087512 7.330425e-05 -5.0478662e-05 0.00010732255
000370 a5 a9 8e 38 e3 90 38 39 bf 7c e8 b9 31 3a d7 38
       6.8026864e-05 0.00017601582 -0.0004434343 0.00010262838
000380 1a 36 e6 38 3d 0e 79 38 ac 17 be 38 3f 04 f4 38
       0.00010977332 5.9379487e-05 9.064315e-05 0.000116356176
000390 60 61 8c b9 81 41 c5 b8 0a cb 38 b8 34 43 60 b9
       -0.0002677543 -9.405893e-05 -4.4058113e-05 -0.0002138734
0003a0 81 53 51 39 4d 87 eb b8 f8 26 4d 39 5a 0d 7a b9
       0.00019962901 -0.00011230875 0.0001956484 -0.00023846832
0003b0 d5 4c 3a 39 51 2a f2 b8 df 13 19 38 38 53 df 36
       0.00017766964 -0.00011547341 3.649655e-05 6.655606e-06
0003c0 61 bf bf b8 e9 ee e5 38 f9 44 cc b6 07 39 d7 b8
       -9.143237e-05 0.000109640714 -6.0877032e-06 -0.00010262621
0003d0 ec 36 ff b7 4b be 63 b9 ea 4e b4 38 96 97 e9 38
       -3.0423944e-05 -0.00021719297 8.597768e-05 0.00011138541
0003e0 53 69 7d b6 f4 6b 16 b9 9d 33 a9 b8 c3 b7 6e b8
       -3.7761245e-06 -0.0001434533 -8.068162e-05 -5.6914763e-05
0003f0 6a c7 2c 37 cc 86 4c 37 07 5b 53 38 b6 2f a1 38
       1.0298429e-05 1.2190732e-05 5.0391096e-05 7.685965e-05

rnn.bias_ih_l0 f4 [96]
000000 63 47 eb b4 7f b8 49 b8 42 c3 b5 b8 74 71 1f b9
       -4.3824102e-07 -4.809396e-05 -8.667122e-05 -0.00015205686
000010 4c ae 2b b9 e8 33 e9 3d 3e a8 2e b8 1f d4 7c 38
       -0.00016372761 0.113868535 -4.164152e-05 6.0279035e-05
000020 09 12 f7 3d ec 93 a3 3e d5 f5 a5 38 7e 64 c6 ba
       0.12063987 0.31948793 7.913603e-05 -0.001513615
000030 44 31 23 b9 e7 67 5f 3e 53 82 08 b9 54 e5 58 b9
       -0.00015563244 0.2181698 -0.0001301852 -0.00020684797
000040 05 96 9d 35 45 15 11 39 5f 21 0b 3b 40 33 59 37
       1.1741073e-06 0.00013836201 0.0021229608 1.29461405e-05
000050 50 bf c6 b8 ea f3 09 b9 48 bc a2 38 a2 30 a0 3c
       -9.4770105e-05 -0.00013156203 7.759832e-05 0.01955444
000060 fe 50 e2 37 b5 85 2e 39 6f 66 12 37 bb 05 c0 bb
       2.6979014e-05 0.00016643743 8.726128e-06 -0.005860058
000070 5d 8b d4 36 9b 53 aa 37 fe d4 a7 b8 72 d9 b0 3d
       6.3343164e-06 2.0304511e-05 -8.0028534e-05 0.086352244
000080 5f 3a bd b8 11 c4 57 38 3f 86 89 b9 99 c3 a3 b9
       -9.023095e-05 5.1442596e-05 -0.00026230697 -0.00031235514
000090 c8 a2 8e 38 77 cd 22 bc 10 c8 59 b9 f7 02 dc 38
       6.801408e-05 -0.009936682 -0.00020769262 0.0001049097
0000a0 e4 bc 07 bb 6e d8 6e be f9 72 de b7 d0 0c 77 3e
       -0.0020711953 -0.23324749 -2.6518e-05 0.24125981
0000b0 f5 5a 6f 39 77 0f 87 bc e8 17 b8 b9 57 e7 2c b9
       0.000228267 -0.016486866 -0.00035113026 -0.00016489379
0000c0 04 2d 49 b9 81 53 ee 38 cb 9e 13 3c 24 2a 10 39
       -0.00019185623 0.00011364278 0.009010027 0.00013748609
0000d0 16 e6 3d b9 f5 76 4c b7 bc 38 79 b8 5e b3 f5 3e
       -0.00018110158 -1.2187044e-05 -5.9419064e-05 0.4798841
0000e0 25 ce 86 38 0b a1 23 39 34 54 6e 38 c3 7a 4e bb
       6.428015e-05 0.00015604885 5.6822042e-05 -0.0031506277
0000f0 bf 09 12 39 4e 34 ea 38 e5 ba 88 39 71 3c 54 3e
       0.00013927276 0.00011167732 0.0002607919 0.20726182
000100 59 3d 54 b7 e1 3d 98 b8 9e c2 02 b8 1f 47 3f bb
       -1.2650468e-05 -7.259451e-05 -3.1175667e-05 -0.0029186679
000110 ab 51 d6 35 f3 e1 77 3b bc 0b 1d b7 2e 16 1b 3a
       1.5968011e-06 0.0037823885 -9.360661e-06 0.0005916086
000120 95 72 a8 bc 54 4b 2e bd 19 eb 9e b7 cd bf ed 3d
       -0.02056245 -0.042552307 -1.8944544e-05 0.11608849
000130 8e 45 df 36 bd 7d 6e bd c6 08 be b7 0d 73 5b b6
       6.654015e-06 -0.058225382 -2.265385e-05 -3.2700511e-06
000140 8c 39 47 39 ca e6 80 b7 ec 87 e2 bd 86 6a 46 36
       0.00018999557 -1.5366259e-05 -0.11061081 2.9566304e-06
000150 0a 61 e1 3c ed 79 08 37 4f b2 d7 b6 51 9b 98 bc
       0.027512092 8.13462e-06 -6.428257e-06 -0.018628748
000160 b4 9d 9f 3a a9 db c1 36 b4 ee 38 bd 76 3a ab bc
       0.0012177736 5.77742e-06 -0.04514952 -0.0209019
000170 74 65 b1 b6 fd f1 37 bb e2 9b 62 b4 10 a8 30 3d
       -5.2868218e-06 -0.002806782 -2.11046e-07 0.043129027

rnn.bias_hh_l0 f4 [96]
000000 f3 21 bd b9 f7 65 09 39 fc 61 88 38 37 48 23 39
       -0.00036074183 0.00013103323 6.503236e-05 0.00015571793
000010 46 17 54 35 70 54 e8 3d f0 3d b7 b8 3f 3e 4a 37
       7.901002e-07 0.1134423 -8.737657e-05 1.2054631e-05
000020 3b 25 f7 3d 0a 80 a3 3e f2 41 fb 38 09 92 c5 ba
       0.12067648 0.31933624 0.00011980896 -0.0015073429
000030 dc b5 89 b8 a3 22 6c 3e 14 46 29 b9 6c 17 47 b9
       -6.566543e-05 0.23060088 -0.00016143202 -0.00018986844
000040 76 d5 3c b9 cd 3d b1 b6 4d 03 09 3b 73 e2 a6 b9
       -0.00018008598 -5.2822056e-06 0.0020906508 -0.00031830705
000050 03 35 2a b8 3b 8b 9d 38 ab f9 3b b9 4b 73 f6 3a
       -4.058053e-05 7.512277e-05 -0.00017926718 0.001880267
000060 b0 de ab b7 df 3d cb 36 39 c5 35 39 22 73 c3 bb
       -2.0488485e-05 6.057074e-06 0.00017334976 -0.0059646526
000070 2e 8e 0a 39 9b bd 8d 36 0a 7b 3d 36 bf b7 31 3c
       0.00013213672 4.2242004e-06 2.8234813e-06 0.010847031
000080 fa 49 3b b7 ac 7e b8 38 d2 40 7a 39 03 05 6f b8
       -1.1163293e-05 8.797398e-05 0.00023866005 -5.6986708e-05
000090 43 f3 98 b8 b2 b9 22 bc 7a 1d 0e 38 a5 93 7f b8
       -7.293236e-05 -0.0099319685 3.388289e-05 -6.0934242e-05
0000a0 17 d1 08 bb 1f cd 6e be 7f 08 00 39 60 e4 76 3e
       -0.002087658 -0.23320435 0.00012210196 0.24110556
0000b0 a4 32 99 b8 1f 0b 87 bc 0a 89 06 38 57 3c 51 37
       -7.305041e-05 -0.016484795 3.2075717e-05 1.247142e-05
0000c0 cf c3 0f 38 f7 4a 82 b8 ed 9f 13 3c 22 4e ea b8
       3.4276218e-05 -6.212846e-05 0.009010297 -0.00011172543
0000d0 67 69 16 37 85 0d 48 b8 21 cc 6b 39 ca bb f5 3e
       8.965238e-06 -4.7696307e-05 0.0002248739 0.47994834
0000e0 c0 c7 8d 39 13 4b 17 b9 d9 0f 03 38 07 75 5d bb
       0.0002704244 -0.0001442845 3.1247593e-05 -0.0033791678
0000f0 4e 22 a9 b7 7d c1 19 39 a4 79 04 39 51 3e 54 3e
       -2.0162344e-05 0.00014663297 0.00012633816 0.20726897
000100 ac 70 fc 37 f6 de ad 37 fa 4c 13 39 4e 1f 73 bb
       3.0093208e-05 2.0727031e-05 0.00014047688 -0.0037097516
000110 4c 97 0a 38 32 a1 aa ba 5e 19 2e b8 44 57 b9 39
       3.304267e-05 -0.0013018011 -4.1508458e-05 0.00035350968
000120 bc 1d 76 bb 5f c4 dd bc b5 e1 97 38 ad 61 aa 3c
       -0.0037554344 -0.027071176 7.242282e-05 0.020798529
000130 bc 2b 04 b7 cb dd 29 3d f0 f2 96 37 7b d9 8d 35
       -7.877996e-06 0.041471284 1.799452e-05 1.0568614e-06
000140 bb c3 c3 b8 d3 59 b2 b7 7a 2e bd bc 2a fa 83 37
       -9.334782e-05 -2.1261081e-05 -0.02309345 1.5732909e-05
000150 bb 0c 2e 3b 59 d8 c1 b6 09 1b 7b 38 42 ab 27 bd
       0.002655788 -5.7770344e-06 5.986824e-05 -0.04093481
000160 72 4c 1a 3b b0 63 84 b7 90 73 ac bc 30 e9 78 bc
       0.00235441 -1.5782047e-05 -0.021051198 -0.015192315
000170 61 af 3b b7 8a 62 82 ba 74 72 57 36 78 b8 a5 3c
       -1.1186902e-05 -0.000994758 3.2104117e-06 0.020229563

fc1.weight f4 [1, 32]
000000 36 70 67 b8 29 70 1f 39 ec 04 89 38 d2 95 ac b7
       -5.5179196e-05 0.00015205205 6.533586e-05 -2.0573763e-05
000010 a5 e1 d1 35 13 b4 01 c0 ae 23 d2 37 7b 56 49 37
       1.5637385e-06 -2.0266159 2.5050565e-05 1.2000669e-05
000020 be 63 11 c0 10 54 24 40 2b 8b 10 36 a8 29 7e bf
       -2.2717128 2.5676308 2.1538679e-06 -0.9928231
000030 dc 04 0f b8 57 a7 d8 bf c4 75 90 b7 4d 1a 5f 38
       -3.4098382e-05 -1.6926068 -1.7220977e-05 5.3191838e-05
000040 77 f3 67 39 76 6b dd 38 1c 8e 2d 3e be 61 00 b8
       0.00022120574 0.00010558117 0.16948742 -3.0608608e-05
000050 09 34 0a ba cc 38 82 38 f3 e8 8a b7 d6 78 b8 bf
       -0.0005272036 6.209462e-05 -1.6559357e-05 -1.4411876
000060 d2 42 6b 39 27 2f 65 38 36 97 32 3a d7 6b db bf
       0.00022436239 5.464177e-05 0.00068126933 -1.7142285
000070 64 69 c0 b8 ea 0c 0e 38 8e 8b f2 b5 32 2c c5 bf
       -9.174904e-05 3.3867465e-05 -1.8071021e-06 -1.5404112
