model_with_spl.pt (torch, 54627 bytes, 5 tensors)

rnn.weight_ih_l0 f4 [96, 104]
000000 88 3a 2f 39 76 d3 e1 b8 1e 1f 0a b7 a5 9c 7d 38
       0.00016711105 -0.00010768224 -8.232686e-06 6.0465787e-05
000010 45 05 80 38 ca b0 d8 b8 49 ce 2a b8 76 92 09 38
       6.104497e-05 -0.00010332612 -4.0723276e-05 3.2799748e-05
000020 04 81 69 38 aa 5e 02 39 cd 48 19 39 44 eb 53 b8
       5.5671684e-05 0.00012433031 0.00014618337 -5.052543e-05
000030 08 84 a7 b8 76 f8 2f b9 40 2d 9c b5 c4 6c 21 39
       -7.987773e-05 -0.0001678186 -1.1636075e-06 0.00015394675
000040 85 63 88 b9 7f 7d f9 b8 a4 e8 ea 38 01 d5 b4 38
       -0.0002601409 -0.00011896621 0.00011201322 8.622744e-05
000050 0e 36 2c b8 72 c8 6f b8 9e 41 87 b8 71 3b 13 38
       -4.1058338e-05 -5.716872e-05 -6.449524e-05 3.510289e-05
000060 65 5e 42 38 6c 90 45 b8 79 e4 8d b9 ce b5 12 39
       4.6341116e-05 -4.7102963e-05 -0.0002706384 0.00013991373
000070 3a cd ad 39 99 95 d7 35 8d 22 0c ba 0c 68 18 37
       0.00033150037 1.6062287e-06 -0.00053457246 9.084131e-06
000080 5b 8f 1b 39 df 41 1f 39 5e c3 4d b9 e5 5b 23 39
       0.00014835356 0.0001518796 -0.00019623103 0.00015579125
000090 37 a7 ca 37 f3 77 2f 37 28 2d 46 b9 ff f2 89 38
       2.4158142e-05 1.0458741e-05 -0.00018899573 6.5779306e-05
0000a0 79 12 00 b9 22 1b 0e 39 6f 3e e5 38 07 0f fe 38
       -0.00012213913 0.00013552283 0.000109312 0.00012114463
0000b0 fc 85 aa 38 1e 2e 60 b9 77 7c be b5 35 92 99 b7
       8.131188e-05 -0.00021379485 -1.4192327e-06 -1.8307104e-05
0000c0 ce b7 f1 38 47 4f 95 b7 21 a7 a2 38 83 fc 1f 39
       0.00011526012 -1.77991e-05 7.755892e-05 0.0001525749
0000d0 4a ef 09 39 d9 00 10 b9 53 ba a0 38 36 67 33 b9
       0.0001315448 -0.00013733226 7.6641e-05 -0.0001710922
0000e0 5d 21 58 38 7a ba 3a 38 e3 74 55 b8 87 cc df b8
       5.1529485e-05 4.4519526e-05 -5.0892017e-05 -0.00010671565
0000f0 c0 0a 18 39 52 58 47 39 6d 88 79 38 d4 ca bc 38
       0.00014499854 0.00019011021 5.9493283e-05 9.002318e-05
000100 9f 6d bd b9 9d 61 60 39 ac 0e 38 b7 26 c6 25 b9
       -0.00036130563 0.00021398668 -1.0970671e-05 -0.00015809442
000110 71 ca 85 b8 09 72 02 b8 a3 f5 59 39 fd 55 dd b8
       -6.379642e-05 -3.110062e-05 0.0002078624 -0.00010554118
000120 8a 1c 07 39 6c 4e 97 b7 65 f1 a1 38 08 69 ff b8
       0.00012885235 -1.803712e-05 7.7220415e-05 -0.00012178911
000130 4c 76 1a 39 d6 c4 02 b8 e9 03 9a b8 d1 3b 10 b9
       0.00014730653 -3.1177733e-05 -7.3440206e-05 -0.00013755194
000140 04 1e 3a b5 f2 29 10 38 78 fa 8d b8 3c a7 38 b9
       -6.933408e-07 3.437134e-05 -6.7700574e-05 -0.00017609907
000150 e3 c5 e5 b8 84 36 b7 b8 c2 91 78 39 04 9e ee b6
       -0.0001095643 -8.736274e-05 0.00023705422 -7.111348e-06
000160 2a 30 31 b9 ca ec 17 b8 6c 7d f6 b9 c0 99 a1 b8
       -0.00016897978 -3.6221732e-05 -0.00047014223 -7.7057164e-05
000170 fe 63 ed b8 b2 81 18 b9 03 c4 a7 b6 7a 67 20 39
       -0.00011319666 -0.00014544165 -4.9998066e-06 0.00015297337
000180 22 1d 2d 39 4e a1 71 b8 d9 77 84 38 cd ef 0b 39
       0.00016509418 -5.7609104e-05 6.316574e-05 0.00013345406
000190 f6 84 47 b7 7c 31 9a 37 81 1a 1b b8 3c b5 b1 b8
       -1.1892282e-05 1.8381274e-05 -3.6979563e-05 -8.473775e-05
0001a0 4a b3 a4 39 21 16 26 39 1d 06 9b 38 5e c9 16 b7
       0.00031414098 0.00015839237 7.392115e-05 -8.987581e-06
0001b0 78 7c fe 38 2d 4d 6a b8 6b 54 61 37 02 d8 7b 38
       0.00012134848 -5.5861823e-05 1.34307e-05 6.0044236e-05
0001c0 81 e3 6e b7 dd 6c b7 b6 6f b6 c0 b8 39 ba 98 b9
       -1.4238875e-05 -5.4664984e-06 -9.189254e-05 -0.00029130446
0001d0 55 d3 e4 38 8c 16 94 37 8e fa 90 39 6f 32 52 39
       0.00010911251 1.7653474e-05 0.00027652498 0.00020045949
0001e0 ba 43 61 b9 d8 18 06 39 30 fd 86 39 17 de 48 b9
       -0.00021482902 0.00012788491 0.0002574711 -0.00019156221
0001f0 7f b3 8e b6 33 6b 73 b9 af 58 06 39 59 be 4d 39
       -4.252826e-06 -0.0002321422 0.00012812273 0.00019621234
000200 5e db 78 39 cf e5 1b b8 fa 00 09 39 75 59 86 b9
       0.00023732844 -3.7168906e-05 0.00013065702 -0.00025625122
000210 79 06 a0 b7 00 17 21 39 fb 81 95 b8 91 fe 3c b8
       -1.90765e-05 0.00015362725 -7.1290844e-05 -4.5059776e-05
000220 46 a8 c1 39 86 5d 13 38 42 46 e3 b8 ab 4f 47 b9
       0.00036937202 3.513463e-05 -0.0001083729 -0.00019007798
000230 c2 b2 57 37 bd 63 14 b8 68 a7 f1 37 10 de 3b 39
       1.2856619e-05 -3.537884e-05 2.8807393e-05 0.00017916434
000240 66 7e 92 b9 87 cb a2 b9 f8 16 e8 b8 8b a0 a5 b8
       -0.00027941464 -0.00031050688 -0.000110669 -7.8977166e-05
000250 85 b0 6e b9 6b 26 17 b9 2e 7f 4d 39 92 18 92 b7
       -0.00022763207 -0.00014414794 0.00019597702 -1.7415998e-05
000260 09 f5 a0 b8 91 0b c2 39 fe 1a 97 b9 28 9d 3a 39
       -7.675036e-05 0.0003701118 -0.00028821075 0.00017796888
000270 10 c9 d2 38 8a ba 54 39 aa 3e 18 b9 13 da 49 b8
       0.00010051031 0.00020287387 -0.00014519194 -4.8125232e-05
000280 7d 7c 10 39 6d 19 89 b9 39 03 41 39 62 a0 b3 b8
       0.00013779286 -0.0002614962 0.00018407115 -8.565259e-05
000290 9c e0 8a 38 e2 e6 6d b8 32 cc fb b8 a6 87 31 39
       6.6221895e-05 -5.672023e-05 -0.00012006647 0.00016930568
0002a0 dd c8 72 39 32 c3 bd b8 62 7b 36 b9 ca 68 0e b9
       0.00023153746 -9.04858e-05 -0.00017402836 -0.00013581212
0002b0 8c 41 ad 38 8c 4b 4c b8 b9 b8 85 b8 c4 40 9a b9
       8.261492e-05 -4.870775e-05 -6.3763415e-05 -0.00029421423
0002c0 d1 ee 44 39 a6 6d bb b8 47 c9 5d b7 49 06 93 b9
       0.00018780983 -8.9372785e-05 -1.321949e-05 -0.00028042708
0002d0 dc d1 0d 39 60 86 a4 b8 38 2c ef b7 9d 3f 13 39
       0.00013524987 -7.845159e-05 -2.8511611e-05 0.0001404271
0002e0 2d 1a 26 b8 7e 44 2e 38 b4 10 05 39 0d 70 48 b7
       -3.9601862e-05 4.154862e-05 0.00012690091 -1.1947018e-05
0002f0 52 81 e0 38 30 00 96 b7 4a eb af b9 90 d4 94 b5
       0.0001070524 -1.788148e-05 -0.00033553905 -1.1088723e-06
000300 0d a7 08 b9 5e 52 55 b9 cc ac a0 37 46 ac 59 b8
       -0.00013032202 -0.00020343947 1.9153951e-05 -5.1897274e-05
000310 53 ed a2 38 37 48 2d 36 ee 54 53 38 f1 1e 3e b9
       7.768967e-05 2.5821043e-06 5.0385417e-05 -0.00018131339
000320 c2 82 30 38 82 1a 5c 38 1e e1 8f b8 ef 5d 10 39
       4.2083448e-05 5.2476775e-05 -6.860703e-05 0.00013767903
000330 15 5c cd b8 4b 91 c8 37 52 d5 5c 39 d7 04 49 b9
       -9.792313e-05 2.3909515e-05 0.00021060303 -0.00019170657
000340 fd 5c a3 b9 74 b4 7b 38 61 8a d4 b7 bd 98 36 39
       -0.00031159064 6.0011123e-05 -2.5336807e-05 0.00017413772
000350 ff 05 25 b9 0e 13 30 b8 84 d8 04 b9 6c 3b 34 b9
       -0.0001573786 -4.1979416e-05 -0.0001266916 -0.00017188274
000360 15 d2 70 b8 15 1a 87 b8 2a 34 0f b8 55 13 df b8
       -5.7416113e-05 -6.44216e-05 -3.414244e-05 -0.000106370695
000370 7b e6 87 b9 47 83 1f 39 6a e2 57 39 c8 5a e1 b6
       -0.00025920928 0.00015212326 0.00020588344 -6.716091e-06
000380 7d ff cc b6 ea 21 de 38 e1 5d 95 39 a4 12 36 39
       -6.1094165e-06 0.00010592102 0.0002848944 0.00017363817
000390 a5 77 03 b9 5b 55 82 38 5a 39 b2 b8 8f 98 9a b9
       -0.00012537705 6.214782e-05 -8.498384e-05 -0.00029486834
0003a0 ba c2 ab b7 e0 72 c2 38 15 a2 bc b8 86 cd 0b 3a
       -2.0475465e-05 9.272038e-05 -8.994729e-05 0.00053330546
0003b0 1e 18 39 39 38 4b 9d 38 ed d5 30 36 92 1b c9 38
       0.00017651959 7.500354e-05 2.6350565e-06 9.589562e-05
0003c0 85 c4 ee 38 a1 0d 93 b8 f0 fb 3e 39 6a 5e 65 b9
       0.00011385329 -7.012045e-05 0.00018213666 -0.00021874314
0003d0 4a 44 dc 37 25 56 7b b8 64 e1 95 b8 b3 06 f6 b6
       2.6257843e-05 -5.992329e-05 -7.146856e-05 -7.332151e-06
0003e0 3e 8c 86 b7 1a 8a 86 37 03 1d 3b 38 ae 3b 0d b7
       -1.603935e-05 1.6038353e-05 4.4611294e-05 -8.41815e-06
0003f0 6a 13 6a 38 c4 95 13 39 d1 a6 88 39 28 4d e8 b5
       5.580803e-05 0.00014074804 0.0002606423 -1.7307802e-06

rnn.weight_hh_l0 f4 [96, 32]
000000 64 5a 89 37 81 51 fe b8 e5 1a c3 35 27 51 5c 38
       1.6373764e-05 -0.00012126845 1.453646e-06 5.2527666e-05
000010 f2 41 07 39 3d e2 c7 38 35 f9 68 b7 dc 70 99 39
       0.0001289917 9.5311996e-05 -1.3886301e-05 0.0002926652
000020 a2 d7 d0 38 43 7e 8a 39 f9 f6 a9 b9 cf ee 05 b8
       9.9583776e-05 0.00026415483 -0.000324182 -3.193208e-05
000030 d5 2f 18 38 64 44 30 b8 92 c4 91 38 88 c8 65 b9
       3.628417e-05 -4.2025364e-05 6.950753e-05 -0.00021913846
000040 48 3c 27 b9 6c 1a 09 38 9d 01 d0 35 54 c5 87 b8
       -0.00015948818 3.2687953e-05 1.5497677e-06 -6.474057e-05
000050 ba 7e 80 39 6a 22 2c 38 2c e1 ac b9 d6 10 f6 39
       0.0002450848 4.1040046e-05 -0.00032974163 0.0004693332
000060 8f ee 42 39 bf 4c 9e 38 11 9d 84 b8 57 8c aa 39
       0.00018590152 7.548322e-05 -6.3235064e-05 0.00032529488
000070 13 7f 14 b9 8c b6 0e b9 2b f5 1e b6 e3 17 c2 38
       -0.00014161719 -0.0001361018 -2.3686541e-06 9.25509e-05
000080 3e c7 76 b8 37 53 06 b9 ff 1d b3 b9 a1 8e 1a 39
       -5.883653e-05 -0.00012810236 -0.0003416389 0.00014739718
000090 71 7e 1f b9 9f a9 fc 37 80 1e f0 b9 79 38 cc b7
       -0.00015210525 3.0119727e-05 -0.00045799091 -2.4344992e-05
0000a0 a4 6f 17 38 2e 17 f2 38 96 48 95 b9 59 51 ac b8
       3.610518e-05 0.00011543777 -0.00028473575 -8.216751e-05
0000b0 ec 28 97 b8 e0 97 50 39 04 30 39 b8 b6 f0 29 39
       -7.2078634e-05 0.00019893004 -4.4152155e-05 0.00016206768
0000c0 66 be 63 b8 10 d1 0d 39 b4 c5 05 39 bd de a8 b9
       -5.429834e-05 0.0001352469 0.00012757519 -0.0003220941
0000d0 58 4b b9 38 76 bb a7 38 f2 ae 85 38 5c 66 9f b8
       8.835521e-05 7.998098e-05 6.37452e-05 -7.600777e-05
0000e0 3a 28 fd b8 bb 41 09 38 38 4f e7 39 87 60 42 38
       -0.00012071473 3.272456e-05 0.00044118776 4.6343102e-05
0000f0 63 69 d8 37 e3 b8 11 b9 f6 98 15 39 8e 13 6e b9
       2.5798281e-05 -0.00013897153 0.0001426673 -0.00022704733
000100 c5 24 5d b7 22 87 62 b9 fc 37 0e 39 cb 66 2e b9
       -1.3181188e-05 -0.0002160338 0.00013563031 -0.00016632226
000110 22 0d 09 39 c6 44 2c b9 4e 75 9b 38 dd 91 0c 39
       0.0001307023 -0.00016428818 7.412826e-05 0.00013405779
000120 92 44 17 39 35 7b c6 38 d0 70 10 38 a2 e2 62 b9
       0.00014426027 9.464325e-05 3.443734e-05 -0.00021637467
000130 e1 7e 34 30 ff fa c7 36 f2 05 2e 38 a1 8f 4e 38
       6.5663924e-10 5.959882e-06 4.149037e-05 4.9247992e-05
000140 e6 b6 f4 b8 18 13 1f b9 05 05 dd b8 f5 6e 54 36
       -0.00011668894 -0.00015170535 -0.00010539036 3.1655047e-06
000150 ae 72 04 39 f8 75 9c b9 5b 58 db b8 a6 ca fc b8
       0.00012631222 -0.00029842532 -0.00010459191 -0.000120540426
000160 8e 59 3f 38 20 b5 4a 38 1b 52 46 39 76 91 40 b9
       4.5621353e-05 4.832924e-05 0.00018913338 -0.00018364735
000170 d8 9c 3a 38 de 12 7c 39 9a 33 14 b9 17 06 fe 38
       4.4491928e-05 0.00024039621 -0.00014133603 0.00012112798
000180 07 b6 b0 39 79 87 ae b9 a0 c9 c7 b8 5c 1a 39 b6
       0.00033704957 -0.000332888 -9.526615e-05 -2.7582491e-06
000190 e0 23 2d b9 61 8a 40 b9 e2 02 10 b9 41 c3 37 39
       -0.0001651193 -0.00018362097 -0.00013733984 0.00017524978
0001a0 5d be 89 b8 3e f5 8a 39 9c 50 b7 39 9e 1d 09 39
       -6.568127e-05 0.0002650413 0.0003496454 0.00013076371
0001b0 c5 50 19 b9 6f 8c 93 38 20 76 76 38 e2 99 48 38
       -0.00014621306 7.035664e-05 5.8760983e-05 4.782703e-05
0001c0 25 0e 43 39 58 18 8f 38 da e3 5b b9 8d af 6f 38
       0.00018601918 6.823306e-05 -0.00020970349 5.7145535e-05
0001d0 ea 94 1c b8 49 a6 1b 39 96 7a 3e b8 1f f6 90 38
       -3.7331985e-05 0.00014843898 -4.5413697e-05 6.912299e-05
0001e0 dc e8 8d 39 1f d1 95 36 ff 7a 09 38 f0 00 0d 39
       0.0002706711 4.464891e-06 3.2777894e-05 0.00013447157
0001f0 71 3f 2b b8 1d 23 8c 39 5c 16 25 38 aa 64 39 b8
       -4.082866e-05 0.00026729042 3.935989e-05 -4.4201188e-05
000200 a9 8a 64 39 3d a6 fe 38 d5 d5 9c b7 5f 6e 15 b8
       0.0002179543 0.00012142628 -1.8696222e-05 -3.562716e-05
000210 25 bb 09 39 b8 1f ce 38 95 14 a5 38 38 ef 4b 39
       0.00013135055 9.8287535e-05 7.871647e-05 0.00019448705
000220 67 ea 2b 39 5c 8d 34 b9 73 af 93 b8 ff 85 18 b9
       0.00016395152 -0.00017218798 -7.042186e-05 -0.00014545767
000230 d5 97 61 b5 83 2e 55 b7 29 26 e7 37 f5 aa 17 b8
       -8.4039976e-07 -1.2706619e-05 2.7555116e-05 -3.616042e-05
000240 20 59 27 b8 03 66 01 39 8c 52 66 38 b1 38 7a 38
       -3.9898907e-05 0.00012340401 5.491315e-05 5.9657443e-05
000250 f8 2b 10 39 ce 6d ac 37 50 bb 15 b7 58 5e 3e 37
       0.0001374929 2.055513e-05 -8.924704e-06 1.1346849e-05
000260 97 d6 95 36 23 b9 6b b8 56 26 59 37 76 52 3e 39
       4.4655276e-06 -5.6200788e-05 1.2943134e-05 0.00018150531
000270 f4 ff 83 38 e5 23 71 b8 55 dd a6 39 93 a7 4c b6
       6.294242e-05 -5.7492307e-05 0.00031826893 -3.049591e-06
000280 a2 76 00 b7 12 ba 82 38 2c 62 03 b7 5d 1f 18 37
       -7.657016e-06 6.233541e-05 -7.831066e-06 9.067208e-06
000290 ae 73 02 39 07 c1 8f 39 a7 ca 96 39 82 c7 91 39
       0.0001244086 0.00027418902 0.00028761217 0.000278052
0002a0 80 8b be 39 ed 64 f4 b8 8d b0 db b8 30 9d 1c b9
       0.0003634356 -0.000116536256 -0.00010475619 -0.00014935876
0002b0 2b 5d 51 38 be bd ab 39 a2 01 38 38 e0 99 1b ba
       4.9916252e-05 0.0003275703 4.387054e-05 -0.000593571
0002c0 31 41 0b 38 da cb 1f b8 51 82 b5 b8 ba 7b 9b b7
       3.3200897e-05 -3.8098406e-05 -8.655026e-05 -1.8535055e-05
0002d0 75 47 9b 38 c6 c8 87 b8 5f 38 01 b8 3f f0 42 b7
       7.404286e-05 -6.4746986e-05 -3.0808496e-05 -1.1619238e-05
0002e0 8d ce 7e 37 67 27 2f 37 6c 7b 3f 38 32 e4 35 b9
       1.5187671e-05 1.0439987e-05 4.5652894e-05 -0.00017346515
0002f0 66 b8 07 39 b4 0f 57 b7 e5 c9 00 b9 8f cf 88 b9
       0.00012943297 -1.2818655e-05 -0.00012282243 -0.00026094585
000300 b0 a1 e4 b8 3a 06 63 b8 74 8a 5a b9 6b c9 2c 39
       -0.00010902004 -5.4126816e-05 -0.00020841678 0.00016478232
000310 c1 f0 3a 39 5b e6 c3 37 a3 7c 1a b9 9d 95 6d b8
       0.0001782803 2.3353079e-05 -0.00014733015 -5.664454e-05
000320 bf 14 5e b7 3d 9b 40 b8 0c f6 8c 38 95 35 38 39
       -1.32370615e-05 -4.5920944e-05 6.72155e-05 0.00017567568
000330 9c ef 20 b9 6e b4 85 37 9c ac 6d 39 c8 7d c5 38
       -0.0001534805 1.5938855e-05 0.00022666383 9.4171206e-05
000340 d7 c7 c8 38 dd 5f 27 39 d8 68 3d 38 c0 df 8a b8
       9.573966e-05 0.00015962073 4.5158755e-05 -6.6220295e-05
000350 9e 11 ae b6 03 ea c0 38 ae 06 a0 38 52 8e 99 38
       -5.187655e-06 9.1988615e-05 7.630639e-05 7.322118e-05
000360 2d cb ab 38 86 f2 0c b7 35 76 d2 b8 5f ee 7b b9
       8.19176e-05 -8.401117e-06 -0.00010035598 -0.00024026025
000370 c6 75 f0 37 ee 28 e4 36 34 eb 0c b9 a7 89 8f 37
       2.8665072e-05 6.7996943e-06 -0.0001343906 1.7111028e-05
000380 4a 44 00 39 d6 a3 4b b9 c0 b1 8c 38 85 fc 5c b9
       0.00012232471 -0.00019420622 6.708829e-05 -0.00021074906
000390 0f 50 d6 b8 18 17 78 b8 74 90 12 36 c1 88 42 37
       -0.00010219227 -5.9149315e-05 2.1839778e-06 1.1595142e-05
0003a0 e9 c6 b1 b9 31 ab e5 38 4e 13 29 39 63 ca 48 38
       -0.0003390827 0.00010951458 0.00016124288 4.7872203e-05
0003b0 1b 88 cd 37 c9 44 06 39 60 5f 28 b9 68 7e 38 3a
       2.4501283e-05 0.0001280486 -0.00016057258 0.0007037879
0003c0 d9 e1 5d b9 d5 1e d5 b7 51 57 2a 39 98 43 8b 39
       -0.00021160337 -2.5405936e-05 0.00016244991 0.00026562507
0003d0 86 e1 04 b9 1a 99 31 b9 31 7a ef b8 28 42 38 39
       -0.00012672515 -0.0001693707 -0.00011419168 0.00017572253
0003e0 5c 71 d2 b6 06 2f 35 b7 1c 72 79 39 72 d7 51 b9
       -6.2716845e-06 -1.0799389e-05 0.00023789 -0.00020012053
0003f0 c4 1b 4f b8 d0 ae e4 38 da e4 02 39 45 e0 5f b9
       -4.9378505e-05 0.000109044486 0.0001248302 -0.00021350484

rnn.bias_ih_l0 f4 [96]
000000 77 9f 5a b8 04 d4 b5 38 b0 9f 50 b9 46 2d 3b 39
       -5.2123763e-05 8.6702436e-05 -0.00019895914 0.00017850575
000010 84 9a cb b8 e1 b2 57 b6 ac 8c cf 38 b4 06 fb b9
       -9.708575e-05 -3.2141618e-06 9.896731e-05 -0.00047879445
000020 1c 79 09 3e 8c 3f e5 b9 e0 46 25 38 2f 80 91 b6
       0.13425106 -0.0004372563 3.9405073e-05 -4.3362593e-06
000030 0e 2f 6c b8 f1 b4 43 3d 4a d1 2c b9 8f ba 28 3e
       -5.6310608e-05 0.04777998 -0.00016481164 0.16477416
000040 e1 6e 65 39 78 b5 2c b9 fe 8c 30 b9 bc 6e 44 b9
       0.00021880447 -0.000164708 -0.00016837192 -0.00018733268
000050 cb cb c6 39 51 f7 6e b9 5a 5b b8 b5 28 c7 ce 3a
       0.0003791734 -0.00022789581 -1.3735655e-06 0.0015775906
000060 2c 26 21 39 a4 03 08 39 a3 9e 56 b9 3f f9 a6 39
       0.00015368377 0.00012971327 -0.00020467727 0.0003184769
000070 ef 53 2a b9 25 b9 43 b9 fc 9f 10 39 2b 35 a8 36
       -0.00016243731 -0.00018665621 0.00013792509 5.0129797e-06
000080 df a1 8c b7 1b 5c 03 39 d0 06 1a b9 35 ad ba 37
       -1.6764678e-05 0.00012527446 -0.00014689122 2.2253584e-05
000090 dd 08 44 39 43 20 32 b9 8f d5 9a 38 2c ed 0f b6
       0.00018695318 -0.00016987421 7.3830706e-05 -2.1446713e-06
0000a0 29 fa 46 3e cf 46 8f b8 40 18 2d b9 d8 0d 4a 38
       0.19431366 -6.8319605e-05 -0.000165076 4.8173446e-05
0000b0 f5 7a 55 39 13 35 99 3c e2 da e4 b8 4c 0f 53 3a
       0.00020359068 0.018702066 -0.00010912657 0.00080512906
0000c0 2d e4 03 39 f3 a9 aa b8 52 6e 42 39 0c 28 4e 37
       0.00012578136 -8.137887e-05 0.00018542379 1.2287881e-05
0000d0 f7 b4 2b b8 43 ce 07 39 3d 24 d0 b8 be b6 d5 39
       -4.0938114e-05 0.00012951442 -9.924963e-05 0.0004076268
0000e0 b5 20 66 b7 a6 82 cd b6 cd 56 87 39 60 8c c8 3e
       -1.37166835e-05 -6.1246856e-06 0.00025813878 0.39169598
0000f0 5e d1 d3 b6 9b 7c 2b b6 4d 36 08 b8 61 17 45 36
       -6.3126636e-06 -2.5553516e-06 -3.24755e-05 2.9368896e-06
000100 30 a1 a4 b9 34 ba 14 39 36 8a 16 38 65 67 7f b9
       -0.00031400612 0.00014183746 3.5891506e-05 -0.00024357213
000110 76 09 1b 39 70 d9 2b b9 7f 38 28 b8 c6 f8 95 3d
       0.00014785476 -0.00016388833 -4.0106937e-05 0.073228404
000120 84 08 e2 bb 26 98 80 38 cf 18 d7 36 22 c6 2c 39
       -0.006897988 6.1318555e-05 6.4103874e-06 0.00016477008
000130 4b 1c 94 b9 b5 62 56 3b 9e a0 9c 39 4b 95 10 be
       -0.0002824984 0.0032712643 0.00029874308 -0.14119451
000140 6f 66 c1 39 17 c2 ce bc a3 49 a2 b9 55 6d 34 b7
       0.00036888148 -0.025239034 -0.00030953911 -1.0754292e-05
000150 5b fa 86 b8 88 73 6b 39 12 14 55 39 d2 df 27 be
       -6.43625e-05 0.00022454385 0.0002032074 -0.16393974
000160 ee 2e c8 38 fa 30 31 38 85 49 74 b9 fa a4 05 3d
       9.5454845e-05 4.22457e-05 -0.00023297041 0.032628037
000170 a7 6e 1f 39 b1 19 9d b8 7d 64 89 b9 a4 fc 8a 38
       0.00015204643 -7.491129e-05 -0.00026205546 6.627411e-05

rnn.bias_hh_l0 f4 [96]
000000 90 eb 27 38 ea cf 8d b8 b4 ab c3 b8 a8 29 2d b8
       4.0035287e-05 -6.762131e-05 -9.330307e-05 -4.128521e-05
000010 bc 98 60 b9 40 0e be 39 13 ab 2c 39 a1 21 e3 b9
       -0.00021419203 0.0003625024 0.00016466928 -0.0004332187
000020 a1 50 dd 3d b6 53 b1 b8 1f f3 28 b9 7a fb 78 38
       0.10806394 -8.45561e-05 -0.00016112298 5.9362013e-05
000030 b6 8b 66 b9 5b 9d 40 3d 2b 93 c8 b6 47 45 2a 3e
       -0.00021986556 0.047025066 -5.977597e-06 0.1662799
000040 0f 56 a7 37 8b 5a 6f b9 60 23 88 37 c8 32 0c b9
       1.9948026e-05 -0.00022826546 1.6228936e-05 -0.00013370358
000050 aa 2c 37 b9 16 14 10 37 1a 9f e7 36 7b 8c d7 3a
       -0.00017468879 8.5877455e-06 6.9028583e-06 0.0016445065
000060 b7 e6 d9 38 79 fa af 38 7c e2 93 b8 45 97 a0 39
       0.0001039034 8.3913044e-05 -7.051692e-05 0.00030630283
000070 9c 08 7b 38 23 b8 ea 38 d0 7a df b7 56 31 b2 38
       5.985108e-05 0.00011192288 -2.664086e-05 8.496891e-05
000080 5f c9 31 b9 cf 6c 00 39 38 51 c0 b8 b7 2e 14 b9
       -0.00016955052 0.00012247566 -9.1704016e-05 -0.00014131783
000090 a0 92 11 39 96 dd b4 b8 bb a4 a3 b8 6f 5c 66 39
       0.000138829 -8.6243424e-05 -7.803129e-05 0.00021968943
0000a0 3d e7 46 3e ed cd 1e 39 6c 37 4e b8 d9 6f 28 39
       0.19424148 0.00015144768 -4.9165843e-05 0.00016063395
0000b0 f4 7e ac 36 8a 21 99 3c 2b 96 ae 38 ac b6 3c 3a
       5.1407787e-06 0.01869275 8.3249375e-05 0.0007198851
0000c0 0d cf 53 b7 8a ca 8f 38 56 64 88 b8 b2 bf ea b7
       -1.2624788e-05 6.856497e-05 -6.5036744e-05 -2.7984239e-05
0000d0 3c cb 30 b8 d7 a0 25 b7 51 0b ba 38 97 06 61 39
       -4.2150947e-05 -9.872215e-06 8.871279e-05 0.00021460127
0000e0 25 64 27 37 04 04 67 38 4e 7d 4b 37 76 a3 c8 3e
       9.977292e-06 5.507843e-05 1.2128918e-05 0.3918721
0000f0 64 34 14 39 46 7a f9 b8 07 df c7 b6 68 f1 a4 38
       0.00014133897 -0.000118960204 -5.956626e-06 7.865095e-05
000100 bf da 1b b9 a4 01 07 39 8e 90 0b 38 2b 75 0d 39
       -0.00014863441 0.00012875214 3.327481e-05 0.00013490456
000110 a9 84 0f b9 c7 f2 2a b8 48 4c c0 38 be e4 ad 3b
       -0.00013686962 -4.0757262e-05 9.169482e-05 0.005306809
000120 0d 2f c1 3d 4a 11 ef b7 1d fa 08 b9 12 ac a4 b9
       0.09432802 -2.8499071e-05 -0.00013063145 -0.0003140872
000130 6e 07 44 b9 f0 81 02 3a e9 a0 6e b8 b6 ec 88 bd
       -0.00018694784 0.00049784686 -5.689348e-05 -0.06685774
000140 0c 10 0e 38 88 4c 03 3b 2d 3c 5e 38 e9 39 9c 38
       3.3870383e-05 0.002003463 5.2984968e-05 7.449446e-05
000150 09 f5 2a 39 3e 58 0e 39 d1 58 8a 39 7b 43 f1 bc
       0.00016303746 0.00013575048 0.00026387585 -0.029451123
000160 19 3e 22 39 15 ae 5e 39 47 45 c3 37 0c 18 6f bc
       0.00015472657 0.0002123642 2.3278071e-05 -0.014593136
000170 b3 27 cd 38 df 5b 66 39 72 4e 4b b9 e6 70 82 38
       9.782556e-05 0.00021968734 -0.00019388812 6.219912e-05

fc1.weight f4 [1, 32]
000000 bd 53 11 b9 a4 88 50 b9 28 a0 78 38 b5 80 0a 39
       -0.00013859473 -0.00019887328 5.9276965e-05 0.00013208653
000010 c2 07 b2 38 2c 70 f8 bd 63 99 84 b9 fc fc 69 3f
       8.4891464e-05 -0.1213077 -0.00025291284 0.9140165
000020 73 05 4c bf 0d 34 33 b9 8c 1f 44 38 a9 3c 11 39
       -0.79695815 -0.0001709016 4.6759422e-05 0.00013850875
000030 b5 27 67 b8 0b b9 69 bf 3b 66 57 38 78 30 07 c0
       -5.5111672e-05 -0.9129798 5.1355204e-05 -2.1123333
000040 c7 7e 30 b9 2b af 88 be 9b ec 9f b8 36 62 ac b7
       -0.00016831896 -0.26696143 -7.625782e-05 -2.054973e-05
000050 83 0b 37 b7 90 c6 9e b8 99 6f 0d b9 b0 39 81 3f
       -1.091033e-05 -7.571012e-05 -0.00013488381 1.009573
000060 b1 a1 af 38 12 eb 8a 37 75 7f 1d 38 4a 18 d1 3f
       8.374768e-05 1.6560345e-05 3.755042e-05 1.6335537
000070 dc b3 e9 b8 47 ae 85 38 f8 85 4d 39 4b f4 88 38
       -0.00011143807 6.374396e-05 0.00019600231 6.5304885e-05
