model_with_modified_loss.pt (torch, 54627 bytes, 5 tensors)

rnn.weight_ih_l0 f4 [96, 104]
0	0x39225a32	0.00015483124
1	0xb8a002eb	-7.629938e-05
2	0x385be685	5.2428357e-05
3	0x3957e18f	0.00020588025
4	0x39a67108	0.00031746202
5	0x3777019c	1.4722722e-05
6	0xb86fede0	-5.720358e-05
7	0x392d98e5	0.00016555523
8	0xb7cf6e1c	-2.4727597e-05
9	0xb8731ac1	-5.796063e-05
10	0xb7a71533	-1.9917823e-05
11	0x390b84f6	0.00013305605
12	0xb74dd0a5	-1.2267531e-05
13	0xb8724cb2	-5.7768724e-05
14	0x382817cd	4.0076487e-05
15	0x394243ea	0.00018526582
16	0x391b0221	0.00014782745
17	0x38143434	3.5334568e-05
18	0x39487e89	0.00019120624
19	0x38973023	7.209207e-05
20	0x38446077	4.681988e-05
21	0x38aff35e	8.389981e-05
22	0x38b10176	8.44029e-05
23	0x39388765	0.00017598046
24	0xb7bffed3	-2.2887636e-05
25	0xb81b633f	-3.704731e-05
26	0x39401c3a	0.00018321062
27	0x391b1f05	0.00014793508
28	0xb85fed40	-5.33883e-05
29	0xb81e33df	-3.7718444e-05
30	0xb8d45897	-0.00010125449
31	0x39841e56	0.00025199604
32	0x3844e32b	4.6941608e-05
33	0xb843dbff	-4.669651e-05
34	0xb9939ee9	-0.00028156422
35	0xb915cae6	-0.00014285333
36	0xb983f52b	-0.00025168931
37	0x38b3f80b	8.581587e-05
38	0xb872e889	-5.791386e-05
39	0x38ce2995	9.830591e-05
40	0xb6da1706	-6.4995866e-06
41	0xb88a4843	-6.5938126e-05
42	0xb93e9a35	-0.00018177259
43	0x399a41cc	0.0002942219
44	0x38052334	3.1742456e-05
45	0x36f16f8c	7.1953455e-06
46	0xb669f938	-3.486477e-06
47	0x38119c83	3.4716457e-05
48	0xb8aa49c7	-8.119974e-05
49	0xb8246424	-3.919391e-05
50	0xb8164fa7	-3.583697e-05
51	0x38c809af	9.538547e-05
52	0xb6c03e58	-5.7293037e-06
53	0xb657e1d2	-3.2168941e-06
54	0x38a0ffbd	7.6770295e-05
55	0x38afb2bf	8.377944e-05
56	0x39267042	0.00015872813
57	0x38c179d8	9.225652e-05
58	0xb809e3d8	-3.287554e-05
59	0x38c5ee5b	9.438089e-05
60	0x3916ad7a	0.0001436974
61	0x36cea447	6.158403e-06
62	0x39144926	0.0001414163
63	0xb8c2e2e1	-9.2929e-05
64	0x39471b11	0.00018988202
65	0x390b39b0	0.00013277563
66	0x392fbe60	0.00016760221
67	0x38f5c6d8	0.00011719548
68	0x390fca28	0.00013712852
69	0x38f012de	0.00011447606
70	0x36a0f008	4.796315e-06
71	0xb90a8836	-0.00013211448
72	0x392d3ae0	0.00016520498
73	0x38a5d0d7	7.9067126e-05
74	0xb89f235e	-7.5882985e-05
75	0xb906b458	-0.00012846419
76	0xb742efbe	-1.161912e-05
77	0xb64ccfca	-3.0519318e-06
78	0x380a6896	3.2999167e-05
79	0x387977ab	5.9477676e-05
80	0x39140abf	0.00014118383
81	0x3889110e	6.535846e-05
82	0x381ca64d	3.7348178e-05
83	0x38a3d175	7.81146e-05
84	0x379ce18d	1.870168e-05
85	0x39080159	0.00012970473
86	0x37fecd76	3.0374835e-05
87	0x39322802	0.00016990307
88	0x39afa325	0.00033500153
89	0xb6c4faa2	-5.8704327e-06
90	0xb8bff377	-9.1529386e-05
91	0x35b9c6cb	1.384143e-06
92	0xb989cc90	-0.00026283087
93	0x36ac9ea3	5.144467e-06
94	0x34c2a2cf	3.6253775e-07
95	0x383b36ae	4.46352e-05
96	0xb93e5346	-0.00018150834
97	0xb75127dd	-1.2466652e-05
98	0xb87a9819	-5.9746297e-05
99	0xb816b044	-3.5926947e-05
100	0x38cf7b2d	9.8934725e-05
101	0xb8c4c5f3	-9.382879e-05
102	0xb9278857	-0.00015977152
103	0xb9132689	-0.00014033368
104	0xbb417f4a	-0.0029525333
105	0x3a0e49f2	0.0005427889
106	0x39a73c53	0.00031897667
107	0xb7c00f55	-2.2895323e-05
108	0x391f925f	0.00015217949
109	0x3b14b9f7	0.0022693851
110	0x3c05a576	0.008157125
111	0x3a83b6e5	0.0010049014
112	0x39396da4	0.00017683819
113	0xbc3640c8	-0.0111238435
114	0x3a0360e3	0.00050116907
115	0xbd1b6298	-0.037935823
116	0x39b434c5	0.00034371592
117	0xb8898e9e	-6.5592336e-05
118	0xb889c136	-6.5686574e-05
119	0xbb29ca91	-0.0025908093
120	0x3c543397	0.012951753
121	0xbe119065	-0.14215238
122	0xbe88f4e9	-0.26749352
123	0xbaec402a	-0.0018024493
124	0x3854d91d	5.074694e-05
125	0xba833980	-0.0010011643
126	0xb9a3f26c	-0.000312704
127	0xb97ea0a1	-0.00024283167
128	0xbc39bfd7	-0.011337242
129	0xbe797cce	-0.24364015
130	0xbc32c25c	-0.010910597
131	0x38a496ef	7.848243e-05
132	0xb98f2b1f	-0.00027307213
133	0x391f954b	0.00015219038
134	0xb9eb6842	-0.0004490037
135	0xbcc5523b	-0.024087062
136	0xb92dde5d	-0.00016581402
137	0x39075bcb	0.00012908799
138	0x3f0f60ac	0.56006885
139	0x3bf33374	0.007421905
140	0x3e9892c4	0.29799473
141	0xbbbc8ea9	-0.005754311
142	0xbe040c14	-0.12895232
143	0xb8c092b2	-9.1825976e-05
144	0xbb3d2bbb	-0.0028865177
145	0x3dd296ce	0.1028267
146	0x39354196	0.00017285938
147	0x38a12906	7.6847195e-05
148	0xb86e1f04	-5.6772507e-05
149	0x39b55ee9	0.00034593724
150	0x39249ad8	0.00015697943
151	0x38dc5a1d	0.000105072024
152	0x38a4806c	7.84405e-05
153	0xb9a0ac67	-0.00030646028
154	0x37b306fd	2.1341717e-05
155	0x37cd3444	2.4462242e-05
156	0xb8bbd127	-8.9558125e-05
157	0x3e84b593	0.2591978
158	0xbbbfee4b	-0.005857264
159	0xb91b806a	-0.0001482979
160	0x3e3bb0b8	0.18329132
161	0xbba97b14	-0.0051721428
162	0xbb82c491	-0.0039907177
163	0xb9213cd7	-0.00015376821
164	0xbc31844e	-0.010834767
165	0x3e4cd724	0.20003945
166	0x3c53867b	0.012910481
167	0x3ed8c4fd	0.4233779
168	0x3c121fe8	0.00891874
169	0x3defc055	0.11706606
170	0xbf1a2ec6	-0.6022762
171	0xba4f76ca	-0.0007914124
172	0xbaee4dba	-0.0018181123
173	0xbb8b18d7	-0.0042449045
174	0x3c98a26d	0.018632138
175	0x3e938ef0	0.2881999
176	0xbb9ca30c	-0.004780179
177	0xbb194eac	-0.002339284
178	0x3acd2085	0.001564995
179	0x3dd2a3bc	0.10285136
180	0x3ed6504c	0.41858137
181	0x3c27229d	0.010201124
182	0x3c22bb89	0.009932407
183	0xbe282b76	-0.16422829
184	0xbd18a06f	-0.037262376
185	0x3a6d74e3	0.000905825
186	0x3b18d0c8	0.0023317803
187	0x37b2cbb5	2.1314112e-05
188	0xb91a86a3	-0.0001473674
189	0x3926ef4b	0.00015920137
190	0xb82c22e8	-4.1040505e-05
191	0x3e5a76e6	0.21334419
192	0x3c248bef	0.010043128
193	0xbea89c42	-0.32931715
194	0x3b1d1c63	0.0023973219
195	0x3e21c9c7	0.15799628
196	0x3d3e77e8	0.04650107
197	0xbaa54018	-0.0012607602
198	0xba32e7f0	-0.00068247225
199	0xbc3da6c9	-0.011575409
200	0x385e8a59	5.305777e-05
201	0x38f397a2	0.00011615387
202	0xb9395d2d	-0.00017677686
203	0x3b23bcd9	0.0024984388
204	0xb94615b6	-0.0001889084
205	0x38fb86a2	0.0001199369
206	0xba5e78d1	-0.0008486631
207	0xb7d17b22	-2.497208e-05
208	0xb9257696	-0.00015779803
209	0xb9934c87	-0.00028095042
210	0x3935d5cf	0.00017341155
211	0xb82cc56c	-4.119186e-05
212	0x389be09c	7.432813e-05
213	0xbaaa086e	-0.0012972483
214	0x39832f64	0.00025021576
215	0x3914ab84	0.00014178274
216	0xb8be0748	-9.061262e-05
217	0xba9056e8	-0.0011012228
218	0x398725c6	0.0002577735
219	0xbd02f08f	-0.031967696
220	0x36afe336	5.2418573e-06
221	0xb9775dcc	-0.00023590698
222	0x38a817ac	8.0152735e-05
223	0x3aae64ec	0.0013305224
224	0xbaf769cf	-0.0018876138
225	0x3a2646c5	0.0006342943
226	0xb65b9ecc	-3.2725975e-06
227	0x3a4d46bd	0.000783067
228	0xb9c49473	-0.00037494636
229	0x3840c0ab	4.5955803e-05
230	0x37d7876d	2.569306e-05
231	0xb9c1b20f	-0.00036944493
232	0x3ba80365	0.005127358
233	0xbbb24ec0	-0.0054415166
234	0xbcac8e15	-0.021063844
235	0x3983a6cd	0.00025110543
236	0xb920222b	-0.00015271518
237	0x3949d7ba	0.00019249218
238	0x366782e3	3.4497868e-06
239	0x3c877896	0.016536992
240	0xb9b5590c	-0.00034589355
241	0x3a057944	0.00050916173
242	0xbbf42500	-0.0074507
243	0xbb1c6499	-0.0023863672
244	0xbb9569e6	-0.004559743
245	0x3b8cc590	0.004296012
246	0xbd5c034f	-0.053714093
247	0xb95192a6	-0.00019986424
248	0x3b9693c6	0.0045952527
249	0x3bc94340	0.00614205
250	0xba047660	-0.00050530396
251	0x38c8079a	9.538159e-05
252	0x3725b812	9.877624e-06
253	0xba6712d3	-0.0008814756
254	0x39f75ab5	0.00047179093
255	0xb8a19e8c	-7.70661e-05

rnn.weight_hh_l0 f4 [96, 32]
0	0xb85e1815	-5.2951353e-05
1	0xb901ae13	-0.00012367246
2	0x39e25819	0.00043171717
3	0x36891f32	4.08655e-06
4	0x39569eba	0.0002046776
5	0xb9441475	-0.00018699637
6	0xb8655c16	-5.4683616e-05
7	0xb6af11a3	-5.2174596e-06
8	0x383759e6	4.3714324e-05
9	0x39441f89	0.00018703764
10	0x386dd509	5.6703608e-05
11	0x388e4b28	6.7850866e-05
12	0xb8ab831d	-8.178337e-05
13	0xb8d166f1	-9.985071e-05
14	0xb8d03ea2	-9.929879e-05
15	0x38c6109f	9.444472e-05
16	0xb955a7c7	-0.00020375765
17	0x3975e29f	0.00023449444
18	0x39102f1f	0.00013750464
19	0xb98f3f70	-0.0002732235
20	0xb88c6c16	-6.695853e-05
21	0x394a8123	0.00019312328
22	0x37590dc2	1.2937411e-05
23	0xb996f5d7	-0.00028793394
24	0x38953ec7	7.116567e-05
25	0x39a1f594	0.00030891283
26	0x38fc2dc1	0.00012024819
27	0x395052e7	0.0001986731
28	0x38526beb	5.0168408e-05
29	0xb8bba5d4	-8.947743e-05
30	0x394df0a5	0.0001963997
31	0x398e5fae	0.00027155638
32	0x379b6fe8	1.852955e-05
33	0xbf4e820d	-0.8066719
34	0x3b51c160	0.003200613
35	0xbd47db81	-0.04879332
36	0x39050eba	0.00012689354
37	0x3b5be404	0.0033552656
38	0x37611992	1.3416999e-05
39	0x3811165f	3.459153e-05
40	0xb8b96ce8	-8.841773e-05
41	0x38ce5c6b	9.84006e-05
42	0xb6bd2da8	-5.637954e-06
43	0xb7b1e6db	-2.1207545e-05
44	0xb80f2eff	-3.4137625e-05
45	0xbb0c6eed	-0.0021428422
46	0x3dbc2a8d	0.091878034
47	0x3732110e	1.0613598e-05
48	0x39456c3d	0.00018827706
49	0x38da50b8	0.00010410085
50	0x3c553f5a	0.0130155925
51	0xbd0ed8b8	-0.034874648
52	0xb9c3a28a	-0.000373144
53	0xb8f67ab4	-0.00011753049
54	0xbe719c26	-0.23594722
55	0x389f4157	7.593881e-05
56	0xbb8fd2de	-0.004389151
57	0x398e2060	0.00027108472
58	0xbb94a705	-0.004536512
59	0xb94d70e4	-0.00019592379
60	0x3950d096	0.0001991413
61	0xb919a5a0	-0.00014652917
62	0x39018171	0.0001235062
63	0xb9a55c69	-0.00031540103
64	0x38514346	4.9892136e-05
65	0xbd9dd12c	-0.07705912
66	0xbbc27840	-0.005934745
67	0xbb4118cf	-0.002946425
68	0xb8f882ef	-0.0001184995
69	0x3b896435	0.004192854
70	0x36b1d731	5.3000626e-06
71	0xb74fa8b2	-1.2377439e-05
72	0x394a8174	0.00019312446
73	0x38c481ff	9.370222e-05
74	0x3884f124	6.3391664e-05
75	0x37e5cc40	2.7394039e-05
76	0x39832ac2	0.00025018124
77	0xbc4335dd	-0.0119146975
78	0xbb3c8eae	-0.0028771567
79	0x3819c905	3.6665257e-05
80	0x37a3f88d	1.9546855e-05
81	0xb91a7fab	-0.00014734144
82	0xbc5c6aee	-0.013453228
83	0x3c002e08	0.007823475
84	0xb8e87696	-0.000110847104
85	0x3926bc24	0.00015901081
86	0xbb372940	-0.002794817
87	0xb7c29d63	-2.3199891e-05
88	0xbc258b2d	-0.010103983
89	0x39b8c393	0.0003524093
90	0x3937d3cd	0.00017531142
91	0xb90a0a27	-0.00013164488
92	0xb8935573	-7.0254224e-05
93	0xb9a722d4	-0.0003187867
94	0x3871fa7f	5.769217e-05
95	0x3792137c	1.741363e-05
96	0xb8c51cf4	-9.399085e-05
97	0xbe1eec64	-0.15519863
98	0xbbbdc684	-0.005791487
99	0xbb39cc9b	-0.0028350714
100	0xb9290819	-0.00016120113
101	0x3c6dbde0	0.014510602
102	0x38c67d6b	9.464737e-05
103	0x38bcf7dd	9.010707e-05
104	0x38392786	4.4144246e-05
105	0xb86c0542	-5.627168e-05
106	0xb891157c	-6.9181406e-05
107	0xb8845ccd	-6.311536e-05
108	0x3964d2ea	0.00021822346
109	0xbc2d9246	-0.010593956
110	0xbb6c1cfa	-0.0036028014
111	0xb795a845	-1.784054e-05
112	0xb9972ce8	-0.00028834422
113	0x3971202f	0.0002299554
114	0xbc139c57	-0.009009442
115	0x3c07cb48	0.008288212
116	0xb948beca	-0.00019144561
117	0xb92dbbc9	-0.00016568521
118	0x3b84c0b6	0.0040512932
119	0x39a97b1c	0.00032325916
120	0xbc00116a	-0.007816652
121	0xb8d1c9bc	-0.000100034726
122	0x399fea01	0.0003050119
123	0x387442c2	5.8236306e-05
124	0xb7bb8646	-2.2354663e-05
125	0xb75f1e9f	-1.3298965e-05
126	0x367464f4	3.6417596e-06
127	0xb82d17d2	-4.12686e-05
128	0xb8fbfab8	-0.00012015313
129	0xb8f3b815	-0.00011621431
130	0xb9880e04	-0.00025950384
131	0x3938c895	0.0001762233
132	0x38206627	3.824211e-05
133	0xb93c852f	-0.00017978692
134	0xb90e109f	-0.00013548367
135	0xb794b951	-1.772927e-05
136	0xb9306648	-0.0001682277
137	0x3787e8f9	1.620174e-05
138	0x38fcd4bd	0.00012055922
139	0xb9c455bc	-0.0003744791
140	0xb8d7ec34	-0.00010295995
141	0xb87cf432	-6.0308907e-05
142	0x37343b80	1.07426895e-05
143	0x38eab659	0.000111919544
144	0x37d20687	2.503699e-05
145	0x38e271f8	0.00010797748
146	0xb6aff95e	-5.2444366e-06
147	0xb8a9db02	-8.099341e-05
148	0xb83894f6	-4.400775e-05
149	0x372a7186	1.0159221e-05
150	0x3842562e	4.6333465e-05
151	0x3991f1d5	0.00027836734
152	0x382c8e0a	4.114028e-05
153	0xb82c18a2	-4.1030937e-05
154	0x38b317f7	8.539849e-05
155	0xb88c6317	-6.694177e-05
156	0x3942bf70	0.00018572598
157	0x39400a89	0.00018314472
158	0xb98bfea1	-0.0002670186
159	0x392dab63	0.00016562412
160	0xb91f26f4	-0.00015177933
161	0x39da5082	0.00041640183
162	0xba063d39	-0.0005120817
163	0x3827eefe	4.003848e-05
164	0x38122655	3.4844812e-05
165	0xb862a690	-5.4037722e-05
166	0x35aaf61a	1.2737612e-06
167	0xb8d93eb8	-0.000103590486
168	0xb8b26d6f	-8.508085e-05
169	0xb809f74b	-3.2893655e-05
170	0xb7ff5ddf	-3.0442081e-05
171	0xb8168811	-3.588951e-05
172	0x392a442f	0.00016237864
173	0x39092332	0.0001307845
174	0xb9cf255e	-0.00039509957
175	0x395149e2	0.00019959317
176	0x381a41f5	3.677789e-05
177	0xb99be1c0	-0.000297321
178	0xb8c3f603	-9.344148e-05
179	0x392ff7df	0.0001678164
180	0x386b9f9f	5.6177025e-05
181	0xb7575631	-1.2835067e-05
182	0xb92e611f	-0.00016630114
183	0xb81e0c08	-3.768134e-05
184	0xb8310707	-4.2206633e-05
185	0xb89893c6	-7.27545e-05
186	0xb98046ec	-0.00024466903
187	0x382f92b0	4.1859865e-05
188	0x38bd7d97	9.035615e-05
189	0xb6da19a7	-6.4998926e-06
190	0xb924f89e	-0.00015732876
191	0x379c8964	1.8660627e-05
192	0x388c662e	6.694753e-05
193	0x39bc98b9	0.00035971942
194	0x399466ec	0.00028305443
195	0xb96bd1cf	-0.00022489506
196	0xb9219839	-0.00015410864
197	0xb9d4b63d	-0.0004057157
198	0x38a1ac03	7.709118e-05
199	0x3880cd7a	6.1417886e-05
200	0x38ab0538	8.1548875e-05
201	0x391198b6	0.00013885167
202	0x38135097	3.5122586e-05
203	0x379af40b	1.8471872e-05
204	0xb7caecca	-2.419054e-05
205	0xb8ad9118	-8.276309e-05
206	0xb903e05f	-0.00012576718
207	0x37aa0f51	2.0272711e-05
208	0x360d25fc	2.1032747e-06
209	0x39212d7b	0.000153711
210	0xb9ede90c	-0.00045377796
211	0xb7b3ed17	-2.1448866e-05
212	0xb8e8b4c6	-0.00011096294
213	0x376d21d4	1.4134177e-05
214	0x37c3d453	2.3344683e-05
215	0xb917bdde	-0.00014471213
216	0x38efebcb	0.00011440328
217	0x38d060f7	9.936274e-05
218	0x393a6f3a	0.00017779777
219	0x394e2f40	0.00019663293
220	0x39888f8f	0.000260469
221	0xb9c76cc9	-0.0003803729
222	0x38a8d97d	8.0513746e-05
223	0x38744bb7	5.824465e-05
224	0xb8938235	-7.033759e-05
225	0xb9b30ae0	-0.00034149643
226	0x3914bada	0.00014183988
227	0xb8bf22fd	-9.114107e-05
228	0x39846dbc	0.0002525876
229	0xb8b45b71	-8.600101e-05
230	0xb9050e6f	-0.00012689245
231	0x3962f8f5	0.00021645783
232	0x3751e2f7	1.2510215e-05
233	0x38b5c65f	8.667702e-05
234	0x3885695a	6.3615575e-05
235	0xb7d9858e	-2.5930607e-05
236	0xb89ff1fa	-7.6267825e-05
237	0x38122bdb	3.4849956e-05
238	0x378995fb	1.6401513e-05
239	0x38dbeb6a	0.00010486583
240	0x38f4c8b9	0.00011672214
241	0x38317c56	4.2315885e-05
242	0x39ac3041	0.00032842348
243	0xb9047f97	-0.00012636032
244	0x37c1ce6e	2.310352e-05
245	0xb8e1c106	-0.000107647895
246	0x3865c66d	5.4782653e-05
247	0x38eda3f1	0.00011331577
248	0xb93633b4	-0.00017376133
249	0x3826d5e2	3.9776678e-05
250	0x3902d609	0.000124775
251	0x378cda7c	1.679104e-05
252	0xb97432d7	-0.00023288593
253	0xb8d15734	-9.9821395e-05
254	0xb932389b	-0.0001699649
255	0x398ec4d4	0.00027231

rnn.bias_ih_l0 f4 [96]
0	0xb8a1cc88	-7.715175e-05
1	0x3e1b6464	0.15175015
2	0x3e151400	0.1455841
3	0x3d7aaae1	0.06119812
4	0x39797462	0.00023789846
5	0xb9785e8b	-0.00023686343
6	0x391435a4	0.00014134363
7	0x391e663a	0.00015106137
8	0xb91e2791	-0.00015082794
9	0x3909732e	0.00013108246
10	0x3732c879	1.0656303e-05
11	0x38873a1e	6.448127e-05
12	0xb8fccf99	-0.000120549645
13	0x3e4810d5	0.19537671
14	0x3cade528	0.021227434
15	0x38c1884c	9.2283444e-05
16	0xb8290226	-4.029474e-05
17	0xb90670ad	-0.00012821211
18	0x389c9b49	7.467584e-05
19	0x3e79905f	0.2437148
20	0x39997d46	0.0002927577
21	0x39092b9e	0.00013081587
22	0x3b351a11	0.0027633945
23	0x38489671	4.7823825e-05
24	0x3b872ec9	0.0041254503
25	0x392f5b61	0.00016723342
26	0xb92ef7f7	-0.00016686307
27	0xb9704719	-0.0002291467
28	0xb7cd2fbf	-2.4460138e-05
29	0xb7dec6ad	-2.6556978e-05
30	0x37f58fc3	2.927322e-05
31	0x385018c8	4.9614144e-05
32	0x38bce952	9.007998e-05
33	0x3bd02e73	0.0063531934
34	0x3e07bd2e	0.1325576
35	0xbb8cb234	-0.0042937044
36	0xb9026bd2	-0.00012437932
37	0x3baeb3fb	0.005331514
38	0x393c4807	0.0001795591
39	0xb925c867	-0.00015810282
40	0x39e8c440	0.00044396706
41	0x382357f1	3.894413e-05
42	0xb98945fa	-0.00026182813
43	0xb94a42df	-0.00019289133
44	0x37b5ee9c	2.1687993e-05
45	0xbd0ceff0	-0.03440851
46	0xbc285a12	-0.010275381
47	0xb93f5de1	-0.00018250152
48	0xb8801ec7	-6.109248e-05
49	0x380f35d6	3.4143995e-05
50	0x3a73af46	0.0009295832
51	0xbc71ea5a	-0.014765346
52	0x37f1bcaf	2.8817301e-05
53	0xb5877144	-1.0091248e-06
54	0x3f02992e	0.51014984
55	0xb7ec1c05	-2.814644e-05
56	0xbbf0a993	-0.0073444336
57	0x388e87c6	6.7963774e-05
58	0x3791cc22	1.7380404e-05
59	0x37e7cd70	2.763301e-05
60	0xb87a69f3	-5.9703318e-05
61	0x375f992b	1.3327498e-05
62	0xb8a5a87a	-7.899194e-05
63	0xb8c87541	-9.5585834e-05
64	0x36a54d87	4.9264086e-06
65	0x3c186575	0.009301533
66	0x3cbdaa86	0.023152601
67	0xbe2348a0	-0.15945673
68	0xb682f1ff	-3.902474e-06
69	0x3cd160db	0.02555888
70	0x3726d5e2	9.9441695e-06
71	0x36a4d6bb	4.912579e-06
72	0x359bbfd3	1.1604228e-06
73	0xb71c75a4	-9.325715e-06
74	0xb6014ae9	-1.9266101e-06
75	0x3623b991	2.4396907e-06
76	0x3803de90	3.144011e-05
77	0xbdc843b0	-0.09778535
78	0xbe0ec001	-0.13940431
79	0xb69ad43d	-4.6142654e-06
80	0xb7ba3966	-2.2199656e-05
81	0x3896fdcf	7.199833e-05
82	0xbbf5a301	-0.007496238
83	0x3d4d0501	0.0500536
84	0x382fcafe	4.1912303e-05
85	0xb84b6f0e	-4.85024e-05
86	0xbd0df4ef	-0.034657415
87	0x38e8c6d0	0.00011099654
88	0x3b98aa18	0.0046589486
89	0xb774ea42	-1.4598076e-05
90	0xbc11064c	-0.008851599
91	0xb753fd18	-1.2635508e-05
92	0x369ea900	4.728441e-06
93	0xb7944b13	-1.7677934e-05
94	0xb73c2f27	-1.1216652e-05
95	0x375954c2	1.2953942e-05

rnn.bias_hh_l0 f4 [96]
0	0xb8a1fb49	-7.723884e-05
1	0x3e1d07c0	0.15334988
2	0x3e06872c	0.13137501
3	0x3d633b4c	0.05547647
4	0xb9281e73	-0.00016033072
5	0xb924a74d	-0.00015702583
6	0x38b70b5d	8.7282366e-05
7	0xb94e811b	-0.00019693786
8	0x37a99a2e	2.0218165e-05
9	0xb900b917	-0.00012275983
10	0xb90300c0	-0.00012493413
11	0x3882098d	6.200662e-05
12	0x39aa0176	0.00032426015
13	0x3e47f364	0.1952644
14	0x3d45a219	0.04825029
15	0x39254ea0	0.00015764916
16	0xb8835574	-6.262484e-05
17	0xb703fb75	-7.866755e-06
18	0x39633b76	0.00021670558
19	0x3e7748c8	0.24148858
20	0x389b48d7	7.4045434e-05
21	0x38a000cf	7.629545e-05
22	0x3ce32452	0.02772728
23	0x38b71d16	8.731538e-05
24	0x3b895586	0.0041911034
25	0xb9ad3122	-0.00033033738
26	0x37a81bfb	2.004019e-05
27	0xb94d6227	-0.00019586888
28	0x39792249	0.00023759263
29	0x393e8718	0.00018170138
30	0xb946e959	-0.0001896968
31	0x372a9000	1.0166317e-05
32	0x38fcb659	0.00012050261
33	0x3bcf18b9	0.006320086
34	0x3e07a215	0.13245423
35	0xbb8cf0d8	-0.0043011717
36	0x384e29eb	4.9153266e-05
37	0x3ba3a4b7	0.004994001
38	0x3902bf71	0.00012469084
39	0xb7804581	-1.5291154e-05
40	0xb856d3db	-5.121888e-05
41	0xb3902152	-6.7115835e-08
42	0xb8e2d066	-0.00010815337
43	0x37c4e692	2.3472388e-05
44	0x36165973	2.2403808e-06
45	0xbd0d0657	-0.034429874
46	0xbc28991a	-0.0102904085
47	0x39230967	0.00015548394
48	0xb7941018	-1.7650469e-05
49	0xb7ae932e	-2.0810952e-05
50	0x3a7589cf	0.00093665434
51	0xbc71d114	-0.014759321
52	0xb88913b2	-6.5363376e-05
53	0x3810d2fe	3.4528777e-05
54	0x3f029468	0.510077
55	0x3888ca99	6.522722e-05
56	0xbbefc7e1	-0.0073175286
57	0xb97f0157	-0.00024319194
58	0xb8a69331	-7.942913e-05
59	0x39327cb6	0.00017021861
60	0xb88de5be	-6.766197e-05
61	0x38806b79	6.123534e-05
62	0xb681f632	-3.8731605e-06
63	0xb89a2f4f	-7.352104e-05
64	0xb757af6f	-1.2855845e-05
65	0xbc9a90ce	-0.018867876
66	0x3b88913d	0.0041677044
67	0xb86fb8cd	-5.715415e-05
68	0x385f6b23	5.3267122e-05
69	0x3c913f78	0.01773046
70	0xb6b4ded4	-5.3903586e-06
71	0x365547b1	3.1781203e-06
72	0xb73ad015	-1.1134912e-05
73	0x36ed883f	7.0790115e-06
74	0xb78dabd4	-1.6888524e-05
75	0x37161d66	8.947542e-06
76	0x382d1e41	4.127459e-05
77	0x39db2260	0.00041796546
78	0x3c35af16	0.011089107
79	0x388da66c	6.7544024e-05
80	0xb8ec2205	-0.000112596936
81	0x3980db46	0.00024577434
82	0x399b07f2	0.00029569824
83	0x3b93f78a	0.004515593
84	0xb95a9aef	-0.00020847817
85	0x370b83a0	8.315692e-06
86	0x3ce2dc3a	0.027692903
87	0x38a33f9f	7.784296e-05
88	0x3b4fa369	0.0031683093
89	0xb8c14822	-9.216393e-05
90	0xbb87eac0	-0.0041478574
91	0x376ba8d9	1.4046404e-05
92	0xb7b870e5	-2.198708e-05
93	0x36460265	2.9505693e-06
94	0x38e5e7da	0.00010962757
95	0x38ad1d1f	8.254707e-05

fc1.weight f4 [1, 32]
0	0x3790d367	1.726458e-05
1	0x3fa2ac05	1.2708746
2	0xbfd233e0	-1.6422081
3	0x400df89b	2.2182987
4	0x38fbb982	0.00012003166
5	0xbb691f4f	-0.003557164
6	0x38a266b0	7.743889e-05
7	0x380b19a1	3.316405e-05
8	0x37c8ae3c	2.3922992e-05
9	0xb6d30323	-6.288655e-06
10	0xb82c54fc	-4.1087143e-05
11	0xb8d09368	-9.9456694e-05
12	0x3983515e	0.0002504689
13	0xbfef2c87	-1.8685464
14	0xbfdd5b3d	-1.7293469
15	0x39160dea	0.00014310298
16	0x39311705	0.00016888611
17	0x38cb3592	9.6897726e-05
18	0xbf159a4d	-0.5843857
19	0x3fec3beb	1.8455786
20	0x3909fd2c	0.00013159652
21	0xb8ab45ee	-8.166941e-05
22	0x3cdc1daf	0.026869623
23	0x382419e2	3.9124752e-05
24	0xbfb29465	-1.3951536
25	0x39563c52	0.00020431101
26	0x3a4f10ef	0.00078989466
27	0xb7f57a44	-2.926321e-05
28	0x3930480b	0.00016811506
29	0xb911e72b	-0.00013914394
30	0xb933fc2a	-0.00017164709
31	0xb8a5a334	-7.898212e-05
