models/model_gamma_0.5_lambda_1.3.pt (torch, 54627 bytes, 5 tensors)

rnn.weight_ih_l0 f4 [96, 104]
00000000: cbdf 1cbe 36ff 23bf c967 433d 9f6d 1c3d
00000010: e482 85bb 9bda 793e b620 0d3f 3e4d 1cbe
00000020: 8e31 7c3e 3cb0 783e abf6 dc3e 5a69 5abe
00000030: 56db 5abd 4018 10bc dfed 333d fc6d d3bd
00000040: 94cf cdbe 6c25 abbd aaef 1d3f 258a a0bf
00000050: 4824 c2be b235 96bd 336f c63c 4c96 f2bd
00000060: fd34 0c3f d052 193f a3d5 0f3e 160d a03c
00000070: 72ba 92bb 8ab4 d5b6 2692 f13e 7d26 643c
00000080: 00d2 6e3c 0abd e13d 89e1 a13d c0b4 a6be
00000090: f4e1 f8be e176 6f3f 1101 9c3e aca3 ef3e
000000a0: df18 73bd f926 763e 4a74 4d3e 873a 77bd
000000b0: 75b9 7c3d bd51 a03d e165 5abe 8d6e 5f3d
000000c0: 3f4f a9bd c4e8 c7ba a42a 90bd 2de6 c4b9
000000d0: 0a12 c73b e277 05bf f726 cdbd 2df5 d2bd
000000e0: b7f8 5b3e f221 2dbe 6a04 3d3e cae1 5dbd
000000f0: 0f6b abbd abb3 5ebe ae3f 113f 1880 b13e
00000100: c447 06bf 62a9 2bbf 5cb8 4bbe defb f6be
00000110: 7816 8dbe a8d3 90bc 2ffd 6ebe 6317 cebd
00000120: 1d58 09bf 81ce 83bf 1e47 8e3c c919 83bd
00000130: de04 95bd d436 5b3d eb28 453e 346c 103f
00000140: 2949 103f caaf 2e3f 5554 313f 184b babc
00000150: ab2f 3c3c ed0a 273d 1585 083e 5f3a 53be
00000160: 5acf b3be cd53 aebe 93b0 bb3e dea3 5bbe
00000170: 8c2b 25be 68e7 86be c1f5 febd 6eea c6bd
00000180: 2575 f1bd 1c1d 49bd 4ef1 e0bd fd01 803e
00000190: eb11 bebc 3d17 c93d b1ef a5be 6c1c a5bd
000001a0: 5ddd 283e 9b55 f9be b4bb f03c efab 8dbd
000001b0: 3403 8c3c 65c1 4abe b72e 4c3d aa46 62bd
000001c0: a9cf 13bd dfb0 3ebe 3450 88be d378 0abe
000001d0: 2705 d23e 5c1d 9e3b 943b 35bd cc2c 673e
000001e0: 0cfc 8cbe 7144 b33e f905 29be 21bb 213e
000001f0: 0095 5e3e 28c2 7ebd e73c 273d aa2e ecbc
00000200: 4a48 8dbe d165 b4be ccb7 613e 646b 2e3b
00000210: 2c03 0bbb 7f57 6936 011d 053e b412 163e
00000220: 3f4b de3c b039 9abe 8d1e 49bd 1cd8 8cbe
00000230: 26aa 603e dd58 123d 5c09 25be 5c37 3a3d
00000240: 3649 f63c ad81 ec3d 1e76 943e c8ef 093e
00000250: 24a9 1abd f4d0 8a3e b7f9 eb3d 5146 12bd
00000260: e94b 8abc b9d8 a6bb 1499 28bd 25a2 e93b
00000270: e14f 533e 28ac b1be 496d 5fbe 1d38 b93e
00000280: 5418 703f 63a5 3cbe d069 08be b7bd 08be
00000290: 625d dabd e8a8 8e3e c422 8bbe 9e19 f33e
000002a0: 562b de3e 84a3 f3bb dd98 fa3b 6678 a53c
000002b0: b808 a33d 3363 8ebe 9058 1dbe 7811 edbd
000002c0: 755b 68be 796b dfbe 7b83 40bc d93d f7bd
000002d0: 5c48 af3d d49f 373d 5740 133e a67f 7fbe
000002e0: ef42 2abf df4b 263e 297e 79be 5a4c eb3b
000002f0: 766e debc b0a9 29bd 97c9 65be fed8 82bd
00000300: 48ab c5be 0a4f 9fbe 1e78 b53d 738a 1dbf
00000310: d954 7fbe f7d3 0a3e b5ac ce3e ce6c f93e
00000320: 6a4a 20bb c643 363d 209e 8e3e a514 95bd
00000330: 91c4 8cbd 0025 91be 3baa 813d 73e9 23bd
00000340: 31a6 f2bd f0f1 473e a875 dbbc fe03 03bd
00000350: 7208 4c3c 864c 65be bf3b fe3e 484e 85be
00000360: a006 703e 9116 293e 3f9e b0be 7c65 323b
00000370: 5593 a43e d1b7 2b3d ea50 b4bc cf38 e93d
00000380: 84da bbbe 6d40 143f bad3 8b3e 0c20 0a3e
00000390: 3971 29bd a2f3 76be aec3 b9be 6820 7539
000003a0: 1c76 0d3f 50cc 65be 2816 3fbe 1335 f7bb
000003b0: 3499 403b 3585 8433 9598 d7be 879e 0a3d
000003c0: f967 b1bc 20ea 80bd 4346 07bc dc71 b73e
000003d0: 794b 7b3f 1db1 74be e6d5 5cbc 7de5 903c
000003e0: 745f a1be 160f 18bf 456d 023e fd38 64bc
000003f0: 74c2 8ebc 58dc e1be cefc 33bd f6be 613d
-0.15319745 -0.64061296 0.0477064 0.03819048 -0.0040744413 0.24399798 0.5512804 -0.1526384
0.24628279 0.24285978 0.43156943 -0.21329251 -0.05343183 -0.008794844 0.043928023 -0.10323712
-0.40197432 -0.08356747 0.61693823 -1.2542158 -0.37918305 -0.0733446 0.024222946 -0.11845073
0.54768354 0.59891987 0.1404634 0.01953749 -0.0044777924 -6.368912e-06 0.47181815 0.013925192
0.014576435 0.110223845 0.079043455 -0.32559776 -0.4860989 0.9354077 0.30469564 0.4680456
-0.05934989 0.24038304 0.20063892 -0.06035855 0.061700303 0.0782809 -0.21327926 0.05454879
-0.08267068 -0.0015251865 -0.07039383 -0.00037555528 0.0060751485 -0.5213605 -0.100171976 -0.1030067
0.21481596 -0.1690748 0.18458715 -0.054170407 -0.08370029 -0.21748225 0.5673779 0.3466804
-0.52453256 -0.6705533 -0.19894546 -0.48239034 -0.27556205 -0.01767905 -0.2333877 -0.100630544
-0.53650075 -1.0297395 0.017367896 -0.064014025 -0.07276319 0.053519085 0.1925389 0.56415105
0.56361634 0.6823698 0.69269305 -0.022740886 0.011485974 0.040781904 0.13332017 -0.20627736
-0.35119134 -0.3404831 0.36658153 -0.21449229 -0.16129893 -0.26348424 -0.124492176 -0.09712683
-0.11789922 -0.049100026 -0.10983525 0.25001517 -0.023201903 0.098188855 -0.32409433 -0.08062062
0.16490693 -0.48698124 0.029386379 -0.06917559 0.017091371 -0.19800337 0.04984924 -0.05524317
-0.036086712 -0.18622158 -0.2662369 -0.13522653 0.41019556 0.0048252773 -0.04424627 0.22575682
-0.27536047 0.35013154 -0.16506185 0.1579404 0.21736526 -0.06219688 0.040829565 -0.028830845
-0.27594215 -0.3523393 0.22042769 0.0026614303 -0.0021211607 3.4770635e-06 0.12999345 0.14655572
0.02713549 -0.30122137 -0.0491014 -0.27508628 0.21939906 0.035729278 -0.16116852 0.04546295
0.030064207 0.11548171 0.28996366 0.13470376 -0.03775896 0.27112544 0.11522239 -0.03571159
-0.0168819 -0.0050917533 -0.04116161 0.007129925 0.2063594 -0.34701657 -0.21819033 0.36175624
0.9378712 -0.18422465 -0.13321614 -0.1335362 -0.106623426 0.2786324 -0.27174962 0.47480482
0.43392438 -0.007435264 0.0076476173 0.020199012 0.07960647 -0.27810058 -0.15365815 -0.115755975
-0.22691138 -0.43636683 -0.011750097 -0.120723434 0.08558723 0.04483016 0.14380012 -0.24951038
-0.6650838 0.1623988 -0.24364533 0.0071807327 -0.027152281 -0.041421592 -0.22440182 -0.06389044
-0.3860724 -0.3111499 0.08860801 -0.6153938 -0.2493471 0.1355742 0.4036614 0.48715824
-0.0024458417 0.044498228 0.27855015 -0.07279328 -0.068734296 -0.2834854 0.06331297 -0.040017556
-0.11848105 0.19525886 -0.026789501 -0.03198623 0.012453185 -0.22392473 0.49654958 -0.26036286
0.23440027 0.16512515 -0.34495732 0.0027221134 0.32143655 0.041923348 -0.02201124 0.113877885
-0.36690152 0.57910806 0.27309972 0.13488787 -0.041367743 -0.24116376 -0.36282104 0.00023377093
0.55258346 -0.2244122 -0.18660796 -0.0075441687 0.0029388191 6.170959e-08 -0.42108598 0.03384259
-0.021656023 -0.06294656 -0.008256498 0.35829055 0.9816204 -0.23895688 -0.013478732 0.017687554
-0.31518137 -0.5939802 0.12736996 -0.013929603 -0.017426707 -0.4411342 -0.043942265 0.055113755

rnn.weight_hh_l0 f4 [96, 32]
00000000: c000 5e3e 8695 c0bc f1da 0c3e 7dcb eb3d
00000010: 4eff 493e 7f64 3d3e 6ceb 2bbe 75cb e23d
00000020: b5e6 e33d 9e42 cbbd cb04 4f3e 5e5a 5dbe
00000030: 0442 023e 01bf 47be dd6e 45be 96db c33e
00000040: c3c6 e73e db34 c1be b0cc b8be 4dab 0dbd
00000050: 65c5 e4bc d46d fbbd 740f 8abe 53da e53d
00000060: 3673 c13e 600d c93e 1275 9ebd f666 72be
00000070: 99c8 313e 16ae 27bd 35e3 abbc 7851 4dbe
00000080: 46ec ef3e 5d67 58be 6560 d73e 34d8 8b3d
00000090: f3f4 1bbd b11c 14bd 64d9 e1be ec97 be3d
000000a0: 8b73 273e 91c1 2cbe f407 4cbd b702 b3bd
000000b0: 34f1 513d 1e09 18be c54e bfbe 1760 b53c
000000c0: 62eb 1bbd 1718 a5bd 5c1d cdbe 1397 75be
000000d0: 5c53 1ebe fb1c 1bbe ba11 9abe 2cd4 ee3d
000000e0: a2e4 41be ea29 09be 03e3 2f3e c8fd 633d
000000f0: 183c a53e 6742 ee3c b5e6 093e 3ba6 20bf
00000100: 98c1 7ebe c197 4cbc 8584 bfbd 872a 0bbd
00000110: 2b01 253d 76df b93d 4445 3dbe ac06 403e
00000120: a94a b7bd a367 2ebc 31bd a33e be1a 033f
00000130: 20d6 cb3c 335a 7dbe 1ae8 35be 994f c4bd
00000140: 02a6 893d a945 dfbd fa27 a0bd bfae 84be
00000150: 2036 733d 1d2e 213d 0107 843d b82f 943e
00000160: 08a9 67bd 1f48 bbbe 4304 23be f6ba 8dbe
00000170: 6f4b b4be 25db 953e 912d 983e cc39 583d
00000180: b9fb 47be a990 e13c 071a 8bbe 5929 063e
00000190: d9f2 863d 8aee aebd 5abc 71bd 0d5a a4be
000001a0: f679 fd3d 2c3a 14be 42db f0bd 0e6e 9cbe
000001b0: e2e2 d33d bd8b 8fbe 9122 d83d 903a 313e
000001c0: 4837 7dbe c5f5 0bbe 6d53 38be 4ff6 923e
000001d0: a7a4 0d3c 3cb5 1a3e 1eb3 133e 6739 82be
000001e0: 6a37 9c3e 0b75 ffbd 12dc 1d3d 2709 7fbe
000001f0: 25e1 123e 8705 b9bd 6e14 273e 14cf ae3d
00000200: 2863 86bb eada 243c b06c e63d e1c2 bf3e
00000210: 88b7 1c3e 5ebc 713e 16ca 10be 7d6a 613d
00000220: 405f 88be b9f6 d33d d893 923d 4793 13be
00000230: dc00 bbbe 1e7d 07be c2ff 143e a5f2 27be
00000240: 7457 cb3a cfc2 163d f802 773e 3e7c 8ebe
00000250: 5f54 943e 8e17 c53d 2bee 243d a2d5 e13d
00000260: 8582 cbbd 2ee0 883e c279 47be f9c8 bfbd
00000270: 5cef 2a3e 3cb1 90be 0036 893d d4c5 6b3e
00000280: 4a85 43be 65e5 85be 9a4e 6abe 86e1 10bf
00000290: 9938 a9be 5d6a fb3e 402a ba3d 1372 993e
000002a0: 809c f9be b812 0cbe 7fd2 83be f9dc 1d3d
000002b0: d27b abbd 3fbd 2e3e 7db5 d0bd 3270 bcbe
000002c0: 80d8 7abe 1090 d03d ed08 75bc 438e d4bd
000002d0: 2099 f2be 30fa 3cbe 6f80 013e 1044 dd3d
000002e0: 46f0 be3c d042 1d3e 46b4 023f 99cb 933e
000002f0: 3226 82bd 2a95 04be 9704 aebe 9c1d 643e
00000300: e441 093f 1508 05be 3ab4 e7bc 141e c13e
00000310: 74f9 093e b9e3 493e 9c7b 39be 4b9d 54bd
00000320: c8c3 443e 8f17 6e3d 77ae 34be 7e50 3bbe
00000330: ab58 73bd c951 153e 4f8d 1ebe 9624 023f
00000340: fc52 073f 30a3 e43e df13 623d 5d90 ecbd
00000350: 2d5a d1bd 4c01 36be 6606 febe 537f dfbd
00000360: b8d0 e53e 6a08 f13e d3a1 643d 6bad bf3c
00000370: 653e a13e 9364 76be 10e8 b6bd 6ce3 69be
00000380: 7cbc 5d3e 96e6 15be aca9 c23e 5c41 1a3e
00000390: d450 03be 579f bbbd bd2d 54be 365f d13d
000003a0: e094 0a3e 3c7d 9abd 2503 8d3a 973d ecbd
000003b0: ecf7 bdbe 51a7 22be b64d a13d a2d4 3fbe
000003c0: 2a37 babb 575e 033d c6c8 c23d 626c 5a3d
000003d0: 723f 603e 9138 78bc e14c 6abe a4f8 43be
000003e0: 2b2c a03e 094c c0be fa1a 0dbe e231 ac3e
000003f0: 55e7 f8bd f024 9dbc 4209 403e ed0b 85bd
0.21679974 -0.023508798 0.13755395 0.11513422 0.19726297 0.18495367 -0.16789025 0.110739626
0.11127988 -0.099248156 0.20216672 -0.21616504 0.12720495 -0.19506456 -0.19280572 0.38253468
0.4526883 -0.37735638 -0.36093664 -0.034587193 -0.027926156 -0.122768074 -0.26964915 0.11223283
0.3778321 0.39268017 -0.07737173 -0.23672089 0.17361678 -0.040937506 -0.020982364 -0.20050609
0.4685995 -0.2113318 0.4206573 0.06828347 -0.0380754 -0.036160175 -0.44111168 0.093063205
0.1635267 -0.16870715 -0.049812272 -0.08740752 0.05125542 -0.14847228 -0.37364784 0.022140546
-0.038066275 -0.080612354 -0.40061462 -0.23983411 -0.15461487 -0.15147774 -0.3009165 0.11661562
-0.18934873 -0.13394895 0.17176442 0.055661947 0.3227241 0.029084397 0.13466914 -0.6275365
-0.24878538 -0.012487353 -0.09351448 -0.033976104 0.040284317 0.09075825 -0.18483454 0.18752545
-0.08949787 -0.010644826 0.3198028 0.5121268 0.024882376 -0.2474144 -0.17764321 -0.095854945
0.067211166 -0.109019585 -0.07820125 -0.2591457 0.05937779 0.039350618 0.064466484 0.28942657
-0.056557685 -0.36578462 -0.15919594 -0.27681702 -0.352138 0.29268757 0.29722264 0.052789494
-0.19529618 0.0275348 -0.27168295 0.1310171 0.06589288 -0.085415915 -0.059017517 -0.32099953
0.12376778 -0.14475316 -0.1176057 -0.30552715 0.10346009 -0.280363 0.10553468 0.17307496
-0.2472812 -0.13667972 -0.18000574 0.28703544 0.008645213 0.15108198 0.14423797 -0.2543442
0.30511028 -0.12473496 0.038539954 -0.24905835 0.14343698 -0.090342574 0.16316387 0.08535591
-0.004101176 0.010061959 0.11251199 0.37453368 0.15304387 0.23607013 -0.1413959 0.055033196
-0.2663517 0.10349793 0.07157105 -0.1441165 -0.36524093 -0.13231322 0.14550689 -0.16401155
0.0015513734 0.036806878 0.24122226 -0.27829164 0.2897062 0.09623633 0.040266197 0.11027075
-0.09937004 0.26733536 -0.1948004 -0.09364504 0.16692871 -0.2826022 0.06699753 0.23024684
-0.19093814 -0.26151577 -0.22881547 -0.5659412 -0.33050993 0.49104586 0.0909009 0.29969844
-0.48752213 -0.13679016 -0.25746533 0.038540814 -0.08373226 0.17064379 -0.10190866 -0.36804348
-0.2449665 0.10183728 -0.014955741 -0.10378697 -0.4738245 -0.18454814 0.1264665 0.108039975
0.02330793 0.15357518 0.51056325 0.2886627 -0.063549414 -0.12947527 -0.33987877 0.2227692
0.53616166 -0.12991364 -0.02828418 0.3771826 0.13474065 0.19715776 -0.1811356 -0.05190782
0.1921531 0.058127936 -0.17644678 -0.18292424 -0.059410732 0.1458198 -0.15483592 0.50837076
0.52861 0.44655752 0.05519473 -0.115509726 -0.10222278 -0.17773932 -0.49614257 -0.10912957
0.44885802 0.47076732 0.05581839 0.023398122 0.31492916 -0.24061804 -0.08930981 -0.22840661
0.21653932 -0.14638743 0.38020074 0.15063995 -0.12823802 -0.09161251 -0.20720573 0.10223238
0.13533354 -0.07543418 0.0010758383 -0.11535185 -0.37103212 -0.15884139 0.0787615 -0.18733457
-0.0056828456 0.03207239 0.09510951 0.05332602 0.21899202 -0.015150205 -0.2288089 -0.19137818
0.31283697 -0.3755801 -0.13779822 0.33631808 -0.12153498 -0.019182652 0.18753532 -0.06496415

rnn.bias_ih_l0 f4 [96]
00000000: d3c8 26bd 8e36 28be feba 1bbe fe11 fbba
00000010: e928 ab3c 7fe7 d73d 131d 733e 4d54 19be
00000020: 240a 063e 459b d03d dea4 393d 590b b13e
00000030: 0aef c63d de07 f93d e096 fd3d dbd8 2abe
00000040: f4df 5ebe b2ab 863e 0171 4b3e 3c89 aa3d
00000050: b649 cabe 07d3 293d 6b8d 8c3e a093 bb3c
00000060: 80fb 91be caef 8ebc 09f5 f4bd 4ff8 ca3d
00000070: b54e 53be 7f87 72bd c2d6 b33e ad7b 67be
00000080: cca9 2fbe 55b0 233e d5a5 a43e 3cdd fc3e
00000090: c98f df3e c21f c33e e313 c63c 4e9f 093f
000000a0: c02e 9a3e ce84 103e c041 d53e d14d 86bc
000000b0: 6a65 603e cbc3 d23e af7d 573e cf83 1b3f
000000c0: 2e36 223f 9f70 6a3d 7945 d8bd d647 a03e
000000d0: 5a40 9c3d c223 213e f4f4 6fbe bde5 853e
000000e0: af5f 0e3e 2a18 5c3f e69f 9f3e ae49 743e
000000f0: 9086 283e 9f62 d63e 3a06 0dbf 20c9 2c3f
00000100: 26c4 20be 9ef2 4f3e 4694 2ebe 1774 efbd
00000110: f0aa 093e c2c8 03ba a842 5ebe f143 1a3e
00000120: 6fd4 7c3d 59ae 2ebe e293 343e 1ab7 383e
00000130: 416a e43d effa ca3d 2be5 a4bd cac1 0d3e
00000140: 7b15 b03d 4d3a a73d fe0d 79bd 031f 14be
00000150: 2c40 b5bc ba20 d33c a2e2 53bd bd4c f13d
00000160: acbf 223e a7e0 ed3c 56b5 d23c a219 253e
00000170: b08c 05be 1d3c 03be 9822 cc3d 0a2e 0f3e
-0.040718865 -0.16427061 -0.1520805 -0.0019155142 0.02089353 0.10542201 0.2374156 -0.14973564
0.13089806 0.10185865 0.045323245 0.3457897 0.09713562 0.12159704 0.12382293 -0.16684286
-0.21765119 0.26302868 0.19867326 0.08326957 -0.39509362 0.041461017 0.27451643 0.022897542
-0.28512192 -0.017448325 -0.11960799 0.09910642 -0.20635493 -0.05921125 0.35124785 -0.22605772
-0.17154616 0.15985234 0.3215777 0.49387538 0.43664387 0.38110167 0.024179405 0.53758705
0.30113792 0.14113161 0.41651726 -0.016394528 0.21913686 0.41165003 0.21044038 0.60748
0.6336392 0.05723631 -0.10560126 0.31304806 0.076294616 0.15736297 -0.23433286 0.2615184
0.13903688 0.8597437 0.3117668 0.23856232 0.16457582 0.41872117 -0.55087626 0.6749439
-0.15699825 0.20307395 -0.1704875 -0.11692064 0.13444114 -0.00050271687 -0.21705115 0.1506498
0.06172603 -0.17058696 0.17634538 0.18038598 0.11153079 0.09911143 -0.08051523 0.13843456
0.08597847 0.08165417 -0.06080436 -0.14464955 -0.022125326 0.025772441 -0.051729806 0.11782215
0.1589343 0.029037787 0.025721233 0.1612306 -0.1304195 -0.128159 0.09967536 0.13982406

rnn.bias_hh_l0 f4 [96]
00000000: 5d67 a73d c683 b23c 1f90 07be 6b24 36be
00000010: e834 5ebe 02f3 3b3e 93ed 433e c321 70be
00000020: cfaa 783d b04e 9e3e 289c 013e 7816 b83e
00000030: 3e5c bfbd f09b 373d d5df 233c c735 6fbe
00000040: d7e5 89be 51f9 573e 2d82 583e 5fde d83d
00000050: a0b5 d3bd aa8f 9a3e 5aa8 293e 13cd bfbc
00000060: 90f2 1cbe bd10 803d 0324 0ebe 6c97 7d39
00000070: 4050 64be e785 d53d 18be af3e 825d 85be
00000080: f8b1 11be a135 c73c cb19 d73e ab6a f93e
00000090: 1522 103f e012 e13e 8899 52be 00d5 f03e
000000a0: 7ba5 b13e 7ea0 143e e724 013f 82e6 7b3e
000000b0: fdd6 023e 8252 df3e e799 d33e c90c 263f
000000c0: 882e 203f 681f 373d 52ca 23be a6f7 d33e
000000d0: 5ff9 03bd 50fe d93d d851 82bd 08df eb3e
000000e0: 7776 b53e d6ee 463f 1523 883e ce4e 8b3e
000000f0: f685 283d d695 c43e 7a35 fcbe 1eee 2a3f
00000100: d234 f4bc 573a 3bbd 20c9 7bbc d021 b53d
00000110: 0c4a 573e ef0b 353e 9d05 39bd cbed b4bd
00000120: e0e0 263e e0c6 a8bd cab8 1bbd f508 47ba
00000130: 061c 003d ebf0 02be 9910 82bd c25c 84bc
00000140: ca50 8fbd 71d3 83be bedc 493e ccc2 14be
00000150: 0ec9 f4bd efe8 61be 3259 1fbe d8f8 143e
00000160: bda2 ddbb 977b 23be 5240 193d 869d dbbd
00000170: dd08 233e c728 8a3d 51c4 ad3d ecc9 fc3d
0.08174012 0.02179135 -0.13238572 -0.1778733 -0.2169987 0.18354419 0.19133596 -0.23450379
0.06070977 0.3091941 0.12657225 0.35954642 -0.09343766 0.044826448 0.010002096 -0.23360358
-0.26933166 0.210912 0.21143408 0.10589289 -0.103373766 0.30187732 0.16568127 -0.023413217
-0.15326905 0.062531926 -0.13880925 0.00024184369 -0.22296238 0.104259305 0.34324718 -0.26047903
-0.14228046 0.024317564 0.42011866 0.48714194 0.56302005 0.43959713 -0.2056638 0.47037506
0.34696564 0.14514348 0.50446934 0.2459965 0.12777324 0.43617636 0.41328356 0.6486326
0.62571 0.044707686 -0.15995148 0.41399878 -0.03222024 0.106442094 -0.06363267 0.46068597
0.35441944 0.77708185 0.26589265 0.2720856 0.04114338 0.38395566 -0.4925955 0.6676959
-0.029810343 -0.045709934 -0.015367776 0.0884434 0.2102434 0.17680334 -0.04517137 -0.08834418
0.1629672 -0.082410574 -0.038018025 -0.0007592582 0.031276725 -0.12787215 -0.06350822 -0.016157512
-0.06997831 -0.25747254 0.19713113 -0.14527434 -0.11952411 -0.22061513 -0.15561369 0.14548051
-0.0067637847 -0.15965115 0.037414856 -0.107234046 0.1592135 0.06746059 0.0848471 0.12343201

fc1.weight f4 [1, 32]
00000000: 035b c9bf a2bb a2be b752 9bbf c69f d83e
00000010: cecf 203f 74fe a93e 1413 1840 4c69 553f
00000020: 92a6 033e 4c31 1040 2b48 853f 7a8d 8ebf
00000030: 435e 2f3f 23d7 5d3f 5f99 98bf bdc2 36be
00000040: 7d97 a7be ab84 49bf c9a0 12c0 c67f 903f
00000050: 13ce 9dbf d38e d93f 78b1 1a40 4fe5 53bf
00000060: 21d2 343f 781a 44be 0837 163f 1d9f 1b3e
00000070: 71d4 c23f 30f9 8b3e cfbd 10c0 5848 fbbe
-1.57309 -0.31783777 -1.2134618 0.42309397 0.62817085 0.33201945 2.3761644 0.83363795
0.1285651 2.2530088 1.0412649 -1.1136925 0.68503207 0.866564 -1.1921805 -0.17847724
-0.32732764 -0.7871806 -2.2910635 1.1288993 -1.2328514 1.6996711 2.4170818 -0.8277177
0.7063313 -0.19150722 0.5867772 0.15197416 1.5221082 0.27338552 -2.261585 -0.4907863
