models/model_with_spl_gamma_0.5_lambda_1.3.pt (torch, 54627 bytes, 5 tensors)

rnn.weight_ih_l0 f4 [96, 104]
000000 ec 97 9d bd ab 09 74 3e 9b ee 90 bd d7 2a c6 3c
       -0.076949924 0.23831813 -0.070767604 0.02419035
000010 b7 68 59 38 8f 17 8a bc 70 24 0d 3e d0 e0 0d bc
       5.1834355e-05 -0.016856937 0.13783431 -0.0086595565
000020 0e 20 e2 bd a1 04 2d be 0e 2b 16 be d3 a7 86 3e
       -0.1104127 -0.16896297 -0.14664862 0.26299915
000030 be e3 fe bd 0c 91 dc bb 16 23 ac bc 4e 87 88 be
       -0.12445782 -0.006731158 -0.021012824 -0.2666573
000040 c8 07 bc be cb e2 57 be c5 15 fb be 1b 72 fc 3e
       -0.36724687 -0.21082608 -0.49040046 0.49305806
000050 8f 6b 61 be be 97 e8 bc fa 10 d2 bc 09 bc 0c 3d
       -0.22013687 -0.028392669 -0.02564286 0.03435901
000060 f1 49 92 3d 68 37 28 be f5 a7 85 be dd d9 5b b8
       0.071430095 -0.16427386 -0.26104704 -5.241657e-05
000070 56 e2 da 3b cc 6b 35 3a 8d 14 a0 be 41 05 fd 3d
       0.0066798134 0.0006920665 -0.3126568 0.12354518
000080 b7 a6 5b 3c ed 94 95 3e 08 6e 85 be b6 db 6f 3e
       0.013406447 0.29215184 -0.2606051 0.23423657
000090 71 cb b3 3e c5 eb 90 be 13 16 6b be bc c5 be 3d
       0.3511615 -0.28304878 -0.2295764 0.093150586
0000a0 59 01 89 bd f7 bb 01 be 79 4d 02 be 4f 95 d7 bc
       -0.0668971 -0.12669359 -0.12724866 -0.026316313
0000b0 be 14 3f bb 8c 3d 8b be 62 f9 80 bb e8 5e 07 3e
       -0.002915665 -0.27195394 -0.0039359787 0.13219798
0000c0 1d 1e 56 bd 5c 38 9d bc 18 eb 16 bd 32 da 21 3b
       -0.052274812 -0.019191913 -0.036845297 0.0024696705
0000d0 80 90 02 bd 8d 5a 3f 3e bf a9 1c 3d 89 c0 e5 3e
       -0.031876087 0.18686886 0.03824782 0.44873455
0000e0 be b8 96 3e fe 2a bf 3e e7 31 a3 be dc a1 08 be
       0.29437822 0.37337488 -0.3187401 -0.13342994
0000f0 a6 51 ef 3c 36 ad 74 3e 09 31 3b 3e 58 05 d3 be
       0.029213738 0.238942 0.18280424 -0.41215014
000100 89 7a 30 3e ab 4c 2f bf 90 7a ce 3c 92 50 7e 3e
       0.17234243 -0.6847636 0.025204927 0.24835423
000110 ea dc a5 be e7 12 86 be ac 2a c9 be 23 f9 46 3e
       -0.32395107 -0.26186296 -0.3929037 0.19430976
000120 92 d4 85 3e f0 56 71 be 00 9f 1c 3e 39 12 7e be
       0.2613874 -0.2356832 0.15295029 -0.24811639
000130 5a d7 7f 3e 29 8e 3e be e6 6f a8 be 73 02 51 be
       0.24984494 -0.18608917 -0.32897872 -0.2041109
000140 c2 1b c1 be 9d de 1d be e4 01 32 3d 3e 5c 57 bd
       -0.3771649 -0.15416951 0.043458834 -0.052578203
000150 04 7c 70 bb ff c0 40 3b 8e 06 89 bd 6c 0d 6f bd
       -0.0036695013 0.002941191 -0.06690703 -0.05836241
000160 b7 9a b2 be 2d 9e 31 3f ae 5a 8a 3b 92 c0 0b 3e
       -0.34883663 0.6938198 0.0042222356 0.13647678
000170 e9 ae a7 bd 6c ab 61 3b 2d 6f 1e be 35 96 1d 3e
       -0.08187658 0.003443445 -0.15472098 0.1538933
000180 4b ba 2d bd 6d b8 9f bd b9 c8 0d 3e a1 3f 8d 3e
       -0.04241399 -0.07798848 0.13846101 0.27587608
000190 4e be 95 3c 44 a6 5c be da 94 1f 3f 2c dd cb 3c
       0.01827922 -0.215478 0.62336504 0.024885736
0001a0 8b cd 46 3d 59 50 4f bd 82 55 cf bc e3 1a 1e 3d
       0.048535865 -0.050613735 -0.025309328 0.03859986
0001b0 6f 01 51 bb 26 07 a0 3e 9b f2 cf 3e 72 05 0b bc
       -0.0031891724 0.31255454 0.4061478 -0.008485185
0001c0 a9 c2 b3 be cd 4c ba be 07 32 45 3e 13 ea a0 be
       -0.3510945 -0.3638672 0.19257365 -0.31428584
0001d0 e5 81 c0 be 6b 12 66 bd 52 8c 6f bb 3a 0b cb 3d
       -0.37599102 -0.05616991 -0.0036552143 0.09914251
0001e0 b2 a2 a8 bd 70 69 24 bd a0 00 e6 3e ba e8 85 3e
       -0.08234157 -0.040139616 0.44922352 0.2615412
0001f0 98 a0 c0 be b1 41 f9 3d 12 07 a5 3d ca db 1f 3e
       -0.37622523 0.12170733 0.08057989 0.15611187
000200 31 ff 0b 3e 74 67 94 3d eb 70 23 bd 5d 1a 48 39
       0.13671567 0.072462946 -0.03990261 0.00019083307
000210 7c d1 45 b1 6e d4 e0 39 56 ff d8 3e 92 67 ac be
       -2.878635e-09 0.00042882882 0.42382306 -0.33672768
000220 2f a8 a1 3d c2 34 1e be 38 e6 2a 3f 44 a3 26 3e
       0.078934066 -0.15449813 0.66757536 0.16273218
000230 33 8d 6a 3e f8 ae f5 3e 39 ff 27 bd c7 e7 81 3d
       0.22905426 0.47985053 -0.041014884 0.06343036
000240 28 1b 58 be 6d 1c 64 be 95 92 8b bd 20 a7 07 be
       -0.2110411 -0.22276469 -0.06815068 -0.13247347
000250 ae c8 87 3d 8c 0c c9 3d e7 0a ca 3d a0 56 dd 3c
       0.066300735 0.09816846 0.09865361 0.027018845
000260 d3 0a 15 3e eb 61 6e bb 0c 28 eb 3c d2 d9 1f 3c
       0.1455491 -0.0036374282 0.02870562 0.009756522
000270 67 1d f1 3d 84 3e 6f bd c5 63 4b 3e dd 17 3e 3c
       0.11773186 -0.05840923 0.19862278 0.011602369
000280 b3 45 e1 bd 3e cd c1 bd 05 7a 99 bc d4 7f a8 3c
       -0.10999622 -0.09462975 -0.018734941 0.020568766
000290 de 3b 9a be b1 ac b8 be 37 52 a3 3e e5 2d 0a 3f
       -0.301238 -0.36069253 0.31898662 0.5397628
0002a0 d7 32 93 bb f6 07 67 be 31 d9 1d bf 92 9d f7 3d
       -0.0044921446 -0.2256163 -0.6165953 0.12090601
0002b0 69 f7 ab be 97 39 a0 bb f8 3b 89 3e 9d 55 72 3e
       -0.33587196 -0.0048896777 0.26803565 0.23665471
0002c0 e8 26 09 3f 6c b0 f3 3d 6f b7 60 be 13 3b d6 3e
       0.5357499 0.11898884 -0.21944974 0.41841945
0002d0 01 eb 49 3e 44 b5 8c be 90 0e 90 be 65 96 af be
       0.19718553 -0.27482045 -0.2813611 -0.3429443
0002e0 da f3 da be 6b b6 1a b8 4b 2f f1 bd de f6 25 bc
       -0.4276417 -3.688635e-05 -0.117765985 -0.0101296585
0002f0 47 b3 98 3c c0 75 10 3d b0 99 7a bd d4 c5 9c 3e
       0.018640174 0.035268545 -0.061181724 0.3061968
000300 61 50 23 3d 4b 9b 26 3e 5f 6c 93 3e 8d e8 85 3e
       0.039871577 0.16270177 0.28793618 0.26153985
000310 2e 4b 4d be 4b d4 7f 3e e8 ba 67 3e 93 88 91 3d
       -0.2004821 0.24983327 0.22629893 0.071061276
000320 6a 1b 99 3d 31 97 95 bd bc 63 69 3e e3 21 b4 be
       0.07475932 -0.07304228 0.22791952 -0.35182104
000330 8b 84 ef bd dd bf d4 be 6d 72 4a be be 39 a1 3b
       -0.116952024 -0.4155263 -0.19770212 0.0049202135
000340 27 b7 f4 3c 7f 6a 9f be 6b ae fc 3b 85 87 1b 3e
       0.02987249 -0.31135938 0.007711222 0.15188415
000350 4e ec f1 3a 52 5d 55 3e b9 14 68 bb 29 46 e6 bd
       0.0018457265 0.2083638 -0.0035412742 -0.11243851
000360 c3 bb 96 bc ae 8c be be d9 06 f0 be 35 b9 85 3e
       -0.018400079 -0.37216705 -0.46880224 0.26117864
000370 cd 5d 1f bf c4 2e 82 3c ff 3b 6c bd cc 28 02 bd
       -0.62252504 0.01589144 -0.057674404 -0.03177719
000380 a0 2d f9 3e d4 c4 03 bf 9d 49 88 be f5 2b c3 be
       0.48667622 -0.5147221 -0.26618662 -0.38119474
000390 8e c9 20 be 7f 43 0c 3e 91 0b a5 3d 5d 8c c5 3c
       -0.15701887 0.13697623 0.08058847 0.024114782
0003a0 2a 9a c3 be e1 5f d4 3d 5c 9b fd 3c d0 e2 ae b5
       -0.38203555 0.1036985 0.03095787 -1.3030021e-06
0003b0 4c ba e7 bb 92 b7 0d 3b 45 62 88 3d 1a 41 8b 3e
       -0.007071769 0.002162431 0.066593684 0.27198106
0003c0 e5 ac 95 3c 5e c4 a4 be e5 00 18 3e 5a 0e 87 bd
       0.01827092 -0.32181066 0.14844091 -0.06594534
0003d0 bd 14 6b 3e 3e 7f b5 3e c9 0a 09 3f ff a9 02 3e
       0.2295713 0.3544864 0.5353208 0.12760161
0003e0 94 c9 9a bc 28 16 89 bd ca 85 b2 3e b7 65 3d be
       -0.018894948 -0.06693679 0.34867698 -0.18495832
0003f0 60 4a 59 3d 85 f9 c4 bc 5a 0c 97 be 1b 29 9f bb
       0.053049445 -0.024044761 -0.2950161 -0.004857195

rnn.weight_hh_l0 f4 [96, 32]
000000 18 ac bb 3e ab 57 1e bc c3 f3 8c 3e 30 45 eb 3c
       0.36654735 -0.009664456 0.27529725 0.028719515
000010 fe b7 87 3d 7d af 84 3c b4 e7 90 be a7 d6 26 3e
       0.066268906 0.01619696 -0.28301775 0.16292821
000020 80 84 65 3e ab 2d fc 3e 8a 2d ae be 3c fc 0a be
       0.22413826 0.49253592 -0.3401912 -0.13572782
000030 e9 41 95 3e 6e 66 10 be de eb 66 be 24 3a aa be
       0.29151848 -0.14101574 -0.22550914 -0.33247483
000040 41 73 ed bd b9 6b 4d bd 7d 12 f6 3e 49 f1 57 3e
       -0.115942486 -0.05015156 0.4806098 0.21088137
000050 5f 76 8a bd b6 b8 11 be 3e f9 45 3e 15 1c 06 3f
       -0.06760859 -0.14230618 0.1933336 0.523866
000060 b5 85 ad 3d 4f 37 ce 3d 30 35 bc 3e 07 a2 d3 3e
       0.08472768 0.10069143 0.3675933 0.41334555
000070 a1 06 71 3b d8 1e e0 3c 96 54 94 be 31 39 28 3e
       0.0036777633 0.027358457 -0.28970784 0.16428067
000080 5a e9 07 bd b2 4f ee 3d 52 d6 98 3e 01 91 c6 3d
       -0.033181526 0.116362944 0.29851013 0.09695626
000090 58 b5 57 3e 32 cd db 3e 1f b4 83 be e1 fd 94 be
       0.21065271 0.4292999 -0.2572336 -0.29099944
0000a0 fd 18 a4 3e 69 e0 30 3e 65 64 62 be f9 db b3 be
       0.32050315 0.17273106 -0.2210861 -0.35128763
0000b0 a4 44 76 3e e6 aa 0c 3e dd e0 b2 3d b5 92 ab 3e
       0.24049622 0.13737068 0.087342955 0.33510366
0000c0 e9 07 7b 3c 5b bb 82 3e dd d5 11 bf f9 2e 02 3f
       0.01532171 0.25533566 -0.56966954 0.50852925
0000d0 4b 67 fd 3d 52 06 54 be 20 c5 15 3e 44 c5 2a 3f
       0.12373217 -0.20705536 0.14625978 0.66707253
0000e0 cd 61 ee 3d 78 85 fb 3e a4 2f 91 bd 2c bb a7 3e
       0.11639748 0.49125266 -0.07089165 0.32759988
0000f0 a0 07 b2 be c0 09 43 be 67 2d 06 bd a5 77 ed bd
       -0.34771442 -0.19046688 -0.032758143 -0.11595086
000100 72 b2 4c bf dd 87 76 3d 2c ad e9 3e 81 f3 89 3e
       -0.79959786 0.060188163 0.45639932 0.2694359
000110 2c 5c fa 3b 18 45 c0 3e f8 bc 02 3f ef 9f a4 be
       0.0076403823 0.37552714 0.51069593 -0.3215327
000120 83 50 b0 3e df fc 01 bf ea 15 d9 bd 52 ab cd 3e
       0.34436426 -0.50776476 -0.10599883 0.4016977
000130 85 d1 b3 3d 64 93 c6 3e 76 22 fd 3e 82 93 17 3f
       0.08780197 0.38784325 0.49440354 0.59209454
000140 88 ee 1d 3f 56 24 55 3b 3e 50 8b bc 82 ba ae 3d
       0.61692095 0.0032522879 -0.017006036 0.08531667
000150 33 4d 8a 3e a4 29 5c be f9 f8 25 bf 19 ae 95 be
       0.27012023 -0.2150026 -0.6483303 -0.29234388
000160 c7 1a a7 be 87 61 5f 3e ad bc 71 be f1 5d f2 be
       -0.32637617 0.21814547 -0.2360713 -0.47337297
000170 ea cc ef be fd 72 18 bd bf 00 08 be 80 7f 20 3e
       -0.46836025 -0.037219036 -0.13281535 0.15673637
000180 76 4f 7c bd b5 89 3c be 0f 79 f2 3d 3f 93 1d be
       -0.061599217 -0.18411906 0.11839496 -0.15388201
000190 17 ba 38 3c 43 14 ae be 0a 8b 1d 3e f5 36 41 3d
       0.011274836 -0.33999833 0.1538507 0.04717155
0001a0 70 2d 99 bd 1f b4 8d be 19 19 50 3e 54 90 09 3e
       -0.0747937 -0.27676484 0.20322074 0.13433963
0001b0 e6 bf 85 be 87 dd c3 be b5 8f 24 bd 49 5d 46 bd
       -0.2612297 -0.3825495 -0.040176112 -0.048428807
0001c0 a3 9b c3 bd 03 01 5e be 9d 8b 87 3c 45 28 1f 3e
       -0.0955117 -0.21680073 0.016546065 0.15542705
0001d0 f9 9b aa bd 55 59 79 bd 2e d8 78 bc 78 00 c1 be
       -0.08330531 -0.06087621 -0.01518826 -0.3769567
0001e0 da c5 20 3e f3 59 8c be 2c f3 10 3f af a4 85 be
       0.15700474 -0.27412376 0.5662105 -0.26102206
0001f0 a7 dc 25 3f c6 91 1f be 85 4e 94 3e 56 19 d3 3d
       0.64789814 -0.15582952 0.28966156 0.10307567
000200 0f 3c 8e be 2e 29 7e bd 48 70 25 3e a4 47 e4 3d
       -0.27780196 -0.06205099 0.16156113 0.11146477
000210 d4 9a 76 be b0 ca 40 3e 18 c8 ec 3d 70 e6 0e bd
       -0.240825 0.18827319 0.11561602 -0.03488773
000220 af ef 0b be 9b e5 85 3e 45 d2 96 be 39 7c 3a 3e
       -0.13665651 0.26151738 -0.29457298 0.1821145
000230 03 ad 04 3f 14 cc 1a 3e 6a 7b 5c 3e 51 87 dc 3e
       0.51826495 0.15116912 0.21531454 0.43071988
000240 83 da a9 be 9f 8f 12 3e 6f cf c3 3d 23 95 97 bb
       -0.33174524 0.143126 0.09561049 -0.004625933
000250 3c 8f 94 3d 11 b8 45 be 7b 74 0b be 95 a3 18 be
       0.07253882 -0.19308497 -0.13618653 -0.14906152
000260 b4 d2 65 be e6 05 82 3e b1 fb e2 3d 34 49 fc bd
       -0.22443658 0.25395125 0.110831626 -0.1231865
000270 40 2c d3 be 18 dc fe bd a1 6a 0a 3e b8 8d 31 3e
       -0.41244698 -0.12444323 0.13517238 0.17339218
000280 9a af b2 be 7b fb 15 3b b9 49 02 3e ca 91 0f 3d
       -0.34899598 0.002288549 0.12723435 0.035051145
000290 7e e4 a4 3e 4a 58 9b 3e c7 df f6 bd 9c be 22 3d
       0.32205576 0.30340797 -0.12054401 0.03973256
0002a0 65 b9 0d 3e 7e 7d 30 be 2a 9d 23 3e 70 2c 87 3e
       0.13840254 -0.17235371 0.15977922 0.2640109
0002b0 1a ed 77 bd 1a 0a 24 3e 14 a0 09 be 9a b2 38 3d
       -0.060528852 0.16019478 -0.13439971 0.045092203
0002c0 6c 75 76 3d a5 05 ed 3d 6f 7c ff be 8e a9 aa bd
       0.060170576 0.11573342 -0.49899623 -0.08333121
0002d0 90 d1 51 3e a9 8d 2b 3d 6b 77 46 3d c3 88 6a 3e
       0.20490098 0.041883145 0.04845373 0.22903733
0002e0 14 cb 60 be 54 9c f6 bc ed 64 47 3d 44 20 9a 3d
       -0.21952468 -0.03010384 0.048680235 0.075256854
0002f0 5b 46 1c bf 31 f3 8c 3d d4 6d 90 bb a4 75 a5 3e
       -0.61044854 0.068823226 -0.004407624 0.32316315
000300 92 9f 42 bd 9c 49 99 bd be 7f 0b 3c 7f cf 7c bd
       -0.04751546 -0.07484743 0.008514343 -0.06172132
000310 7f d2 3c 3e 6e 85 29 3f 1d e1 9c be d5 59 2e be
       0.18439673 0.6621922 -0.30640498 -0.17026456
000320 eb a0 a6 be 80 97 85 bd b0 87 c2 3e b3 a6 f4 be
       -0.32544646 -0.06523037 0.37994146 -0.4778343
000330 76 db 92 be cd 33 81 bd 59 0d 3d be e5 ef be 3d
       -0.2868306 -0.06308708 -0.18462123 0.093231
000340 6b c9 b2 bd 10 a5 83 be e4 ea a7 bd 7a d1 29 3e
       -0.08729824 -0.2571187 -0.08199099 0.16583815
000350 71 1e 98 3e 9f 7d 2c 3e a6 92 fa 3e 09 4c 0d 3f
       0.29710725 0.16844796 0.4894001 0.55194145
000360 11 e9 39 3e 37 10 03 bd 91 06 8d bd b6 eb 62 3e
       0.18155314 -0.031997886 -0.06886018 0.22160229
000370 94 c4 0b 3d 0d 1b 9f 3d 78 3d eb 3d 21 34 3e 3e
       0.03412302 0.077688314 0.114863336 0.18574573
000380 30 04 b2 3e d3 e2 8f bd c2 cd c3 3d ad 92 60 bd
       0.3476882 -0.07025685 0.095607296 -0.05482738
000390 ad da c6 3d 9b 43 5c be 36 6d 73 be 5e 8d b9 3e
       0.09709678 -0.21510164 -0.2377213 0.36240667
0003a0 40 95 ba 3e 95 a7 be bd ce 8c ed bd d0 72 03 3d
       0.36441994 -0.093093075 -0.11599122 0.032091916
0003b0 10 6d d6 3e 24 b6 14 bb 2e 8c a9 3e 84 77 4f be
       0.41880083 -0.0022691572 0.3311476 -0.20260435
0003c0 d5 0f eb 3c c6 ec 7b 3e 17 aa fd bd 68 98 df 3c
       0.028694073 0.2460204 -0.12385958 0.027294353
0003d0 11 a1 4b bc 5b b9 10 3d 91 86 97 be d2 a2 d6 3e
       -0.012428538 0.03533302 -0.29594854 0.41921097
0003e0 b7 81 99 be 45 b4 d3 bb 18 ec 4e 3e a0 71 78 be
       -0.29981777 -0.006460699 0.2020725 -0.24262094
0003f0 cf 95 78 3e 54 6f d5 bd 79 9b bc 3e 95 ec 1a be
       0.24275897 -0.10421625 0.36837366 -0.15129311

rnn.bias_ih_l0 f4 [96]
000000 1c 30 5d 3d 5e 82 95 bd a3 b9 a5 bd ac eb b2 3d
       0.05400096 -0.07300256 -0.08092048 0.08736357
000010 e6 72 fa 3c 3b 27 f5 3d 37 23 c1 bc 05 74 98 bc
       0.030572366 0.11970373 -0.023576362 -0.01861001
000020 0f d5 4f 3e 9c 47 62 3e 74 b5 d9 bc e6 d7 e9 bd
       0.20296119 0.2209763 -0.026575781 -0.114181325
000030 da 35 82 be 04 45 ae bd 07 90 2d 3e ef ad cd 3e
       -0.2543171 -0.085092574 0.16949473 0.40171763
000040 1f a7 c6 3d 8f a9 d2 bd 06 af e3 bd 1a 67 91 3d
       0.096998446 -0.10286247 -0.111173674 0.07099743
000050 77 85 d5 3e ca db c3 3c e7 cd 48 3d 5d 35 c0 3d
       0.41703388 0.023908515 0.04902449 0.09385178
000060 75 de 40 3d c3 a1 2b 3f 01 b2 8e bd ee 84 cf 3d
       0.04708715 0.67043704 -0.06967545 0.10132776
000070 a7 e3 d5 be bc e2 86 3e 92 e0 82 bd 10 42 0e be
       -0.41775247 0.2634486 -0.0639049 -0.13892388
000080 49 24 f6 3e a5 30 c8 3e d3 7e 8f be 17 bb c9 3d
       0.48074558 0.39099613 -0.28026447 0.09850138
000090 9a 44 f3 3e 5d 84 c2 3e 2a a3 81 3e 7e e1 12 3f
       0.47513276 0.3799161 0.25319797 0.57375324
0000a0 bf 60 57 bd f2 87 80 3e f9 0b d3 3e 0d 33 97 3c
       -0.0525825 0.25103718 0.41220072 0.01845696
0000b0 6e d5 25 3f 62 23 0a 3e e6 15 2d 3e 2f d9 00 be
       0.6477879 0.1349006 0.16902885 -0.12582849
0000c0 cf bb 0b be c7 26 ab 3e dd 17 44 3f 5f 2f bf 3e
       -0.13645862 0.33428022 0.7659891 0.3734083
0000d0 09 c1 20 bf 36 11 ef 3e 2a a7 d5 3e fa 50 cf 3d
       -0.6279455 0.46692818 0.417291 0.10122867
0000e0 e4 8c 6b 3e a5 75 ea be d0 68 f4 3e 46 ea c7 3d
       0.23002964 -0.4579288 0.47736216 0.09761481
0000f0 f1 d1 65 3f 36 48 36 be eb 5e b8 3e 6f c4 4f 3f
       0.8977347 -0.17800984 0.36009917 0.8115911
000100 9c ce 01 be b0 cb 46 be 83 d7 57 bd f4 68 28 be
       -0.12676471 -0.19413638 -0.052695762 -0.16446286
000110 2a 08 db bd f7 76 46 bc 67 1e 6c 3e 75 fb 0e 3e
       -0.106949165 -0.012113324 0.23058473 0.1396311
000120 b9 63 35 bd 3e b9 ce 3d de c5 ac 3c 54 1d 5b 3d
       -0.044284556 0.10093926 0.021090444 0.053494766
000130 20 66 41 bd 55 67 a4 3d 79 64 71 3c aa 7f a3 3c
       -0.047216535 0.080275215 0.014733427 0.019958336
000140 88 cf fe bd dc 20 4c bd 5d 4d 3e be 67 52 36 bc
       -0.12441927 -0.049836025 -0.18584199 -0.011128045
000150 26 5f 97 3e 1b cb c8 bd 2d 8e b0 bd c2 a3 3b 3e
       0.2956478 -0.09804364 -0.08620868 0.18324187
000160 f9 28 51 3e 80 75 ce 3c 72 de a2 bd ba cb e8 3d
       0.20425786 0.025202513 -0.07952584 0.11366983
000170 3a c7 05 be 7d 4c 84 bd a3 c7 45 be ee c8 85 3e
       -0.1306428 -0.064599015 -0.19314437 0.2612986

rnn.bias_hh_l0 f4 [96]
000000 f3 75 44 3d c8 bf e5 bd 20 46 89 be 20 ff d9 bd
       0.047964048 -0.1121822 -0.26811314 -0.10644364
000010 b2 f9 cf 3c e3 c4 4d 3d 1a e9 a4 3d 1c f9 d4 3c
       0.025387619 0.050236594 0.08052273 0.02599769
000020 4f e7 8b 3c 7c 20 72 3e 23 e3 a8 3d 30 fe f4 bb
       0.01707807 0.23645204 0.08246448 -0.0074765906
000030 ee d6 73 bd 72 ce e2 3d 18 35 e4 3d ca 7e d9 3e
       -0.059531145 0.110745326 0.11142939 0.42479545
000040 4d d2 72 bd 7c 8f f9 bd c3 c4 b7 bd 86 3b 10 3e
       -0.05928259 -0.121855706 -0.08973076 0.14085206
000050 47 3a 26 3f dd 00 49 be 34 3f fb bd 03 15 64 3e
       0.64932674 -0.19629236 -0.122679144 0.2227364
000060 1e 42 a6 bd 33 2f cc 3e 1b d3 f7 bd 04 3b 49 3d
       -0.081180796 0.3987976 -0.12100812 0.049128547
000070 fb e8 c0 be d8 3e 52 3e 44 20 08 be d0 ac e3 bc
       -0.3767775 0.20531785 -0.13293558 -0.027792364
000080 83 24 d2 3e bc 5f cc 3e 4b 17 93 be 9d 80 02 3d
       0.4104348 0.3991679 -0.2872871 0.031860936
000090 79 8c 19 3f f0 04 cc 3e 71 83 4f 3e f6 20 1a 3f
       0.5997997 0.39847517 0.20264985 0.60206544
0000a0 2f 34 88 3d 18 81 8a 3e a5 4f 19 3f ed 9a 3d 3e
       0.06650578 0.27051616 0.5988715 0.18516131
0000b0 b3 26 c4 3e f5 d0 b9 3c e3 24 8d 3e ee 3f 0e bd
       0.38310775 0.022682646 0.27567205 -0.034728937
0000c0 77 89 0c be 99 cb a6 3e a3 30 37 3f 39 ac 54 3e
       -0.13724314 0.32577208 0.7155859 0.20768823
0000d0 49 78 1d bf fd ef 2c 3f 36 2a 31 3e 26 80 2d 3e
       -0.61511666 0.67553693 0.17301258 0.16943416
0000e0 23 9d d9 3d 37 76 bd be 9a c4 66 3e 78 7c 4b 3e
       0.106256746 -0.37004253 0.22535935 0.198717
0000f0 1b b1 54 3f 3b 2e 47 be 38 fd 02 3f 32 20 21 3f
       0.8308274 -0.1945123 0.5116763 0.6293975
000100 fc f2 49 3d 79 49 7a bd 0f 54 fd 3d 3d 23 b3 3d
       0.049303994 -0.061105225 0.123695485 0.087469555
000110 be fb 4a 3d 66 4c 85 bd 99 85 f8 3d 0b 7e 42 bd
       0.049556486 -0.065087125 0.12134857 -0.047483485
000120 ff fd 61 bb 7b fe f9 bc a4 31 85 be f2 5e 95 bc
       -0.003448367 -0.030516854 -0.26014435 -0.01823375
000130 00 c4 1f be ac d6 81 be f5 77 9e bd 6e c1 b9 3d
       -0.15602112 -0.25359094 -0.07737724 0.09070097
000140 78 e0 cf bc d1 fb 94 3d 96 09 0b be 36 1e 44 be
       -0.02537559 0.07274593 -0.13577875 -0.1915215
000150 73 f0 17 be 46 e6 fc ba a4 32 8f 3d 3c a5 87 bd
       -0.14837818 -0.0019294701 0.06992081 -0.06623313
000160 76 78 76 3e 29 c9 f3 3d d4 7e 7f be 09 8a 28 3e
       0.2406939 0.11903603 -0.24950725 0.16458906
000170 46 a9 59 3d 10 89 8d 3d 83 43 de 3c 84 a8 70 3d
       0.053139947 0.06910908 0.027131801 0.05875446

fc1.weight f4 [1, 32]
000000 35 9e 7f 3f 80 8b 90 bf 8f 5f 8d bf a8 b5 30 bf
       0.9985078 -1.1292572 -1.1044787 -0.69027185
000010 7b 67 a6 3e 40 17 1e bf 32 3c 63 bf 6f ca 1e bf
       0.32500824 -0.61754227 -0.88763726 -0.6202764
000020 63 7a 7f be d7 37 89 bf a7 72 bd 3e 0f 85 a0 3f
       -0.2494903 -1.0720166 0.37001535 1.2540606
000030 fb 28 24 3f bb 2f a1 3f b0 3a ae 3e 2b f1 d0 bf
       0.6412503 1.2592691 0.3402915 -1.6323599
000040 84 55 ba 3f 98 a6 b0 bd 23 44 54 3f 39 ed 5b 3f
       1.4557347 -0.08625525 0.8291647 0.8590885
000050 fa fa 24 40 60 c3 20 bf 91 45 d2 3b 4f 2c 5f bf
       2.5778184 -0.6279812 0.0064169844 -0.87176985
000060 51 09 3e bf 41 59 22 c0 cd 53 1d 3f 71 0c 0d 3e
       -0.74232966 -2.5366976 0.61455995 0.13774277
000070 04 b6 2f 3f e3 33 8a 3f 72 f1 f3 be 59 9e ce 3e
       0.6863711 1.0797085 -0.47645146 0.40355185
