models/model_with_modified_loss_gamma_0.5_lambda_1.3.pt (torch, 54627 bytes, 5 tensors)

rnn.weight_ih_l0 f4 [96, 104]
0	0x3f09bf2f	0.5380735
1	0xbe5fb251	-0.21845366
2	0x3d1d2cdf	0.03837287
3	0x3d4156c3	0.047201883
4	0x3c365c77	0.011130444
5	0x3d9f0686	0.07764916
6	0xbe86bf40	-0.26317787
7	0x3e562aac	0.20914716
8	0xbc6662a2	-0.014061602
9	0xbe2f5fee	-0.17126438
10	0xbee73435	-0.45157018
11	0xbf738627	-0.95126575
12	0xbf10b657	-0.5652823
13	0x3e2bcc25	0.16777094
14	0x3d7dc80e	0.061958365
15	0x3e2890c5	0.16461475
16	0xbde9348c	-0.11386976
17	0xbe2497c9	-0.16073526
18	0x3e9694a0	0.29410267
19	0x3eb09c7b	0.34494385
20	0xbef003e1	-0.4687796
21	0xbdb47e40	-0.08813143
22	0xbd8461be	-0.06463955
23	0xbc2d7573	-0.010587084
24	0xbf117b0a	-0.5682837
25	0xbe5cd764	-0.2156654
26	0xbe21df24	-0.15807778
27	0x3904f195	0.00012678497
28	0x3cf30352	0.02966467
29	0x3bdc27c2	0.0067186067
30	0xbec2dba3	-0.38058195
31	0x3e968810	0.29400682
32	0xbcb72697	-0.022357268
33	0x3ea70124	0.32618058
34	0x3ec583a6	0.38577002
35	0xbd8d36af	-0.06895196
36	0xbda8f61e	-0.08250068
37	0xbe8ca6c2	-0.27470976
38	0xbdbcbd33	-0.092157744
39	0x3ea08ba5	0.3135654
40	0xbd8d55ce	-0.069011316
41	0x3e167f52	0.14697006
42	0x39cf0334	0.00039484503
43	0x3e41022c	0.18848485
44	0x3e07f751	0.13277937
45	0x3e09cf6f	0.13458036
46	0x3cc6503b	0.024208179
47	0xbcdfafec	-0.027305566
48	0xbdbec957	-0.09315746
49	0xbd93ad39	-0.07210774
50	0xbe41ba64	-0.18918759
51	0xbd6c6e83	-0.05772258
52	0xbeb14f25	-0.34630695
53	0xbd9512a9	-0.0727895
54	0x3e880f34	0.265741
55	0x3df0e8e0	0.117631674
56	0x3f899c56	1.0750835
57	0xbeb6fe9c	-0.35741127
58	0xbe4630dd	-0.19354577
59	0xbd69e2f1	-0.057101194
60	0xbee05574	-0.43815196
61	0xbdd6ac0e	-0.104820356
62	0xbe1d0094	-0.15332252
63	0x3ee54ce1	0.44785216
64	0x3e0d2d45	0.137868
65	0xbf0fc09b	-0.5615327
66	0xbe79c8ca	-0.24393001
67	0xbe9a97c2	-0.30193907
68	0xbecaf5ff	-0.39640805
69	0xbeea0a2c	-0.45710886
70	0xbf3aa3a7	-0.72905964
71	0x3e75fe62	0.2402282
72	0x3f38699a	0.72036135
73	0x3e070b04	0.13187796
74	0xbd5b715d	-0.05357491
75	0xbefbc0c0	-0.49170494
76	0x3f086745	0.53282577
77	0xbeb1e8aa	-0.3474782
78	0xbd1ff063	-0.03904761
79	0xbbd65aaa	-0.0065415697
80	0x3ce9b342	0.02852786
81	0xbe94c1e8	-0.2905419
82	0x3e2007be	0.15627953
83	0x3c476992	0.012171166
84	0x3d2e7392	0.042590685
85	0xbc89c64c	-0.016818188
86	0x3d199a87	0.037500884
87	0x3e46ddf8	0.19420612
88	0xbe5e7a9c	-0.2172646
89	0x3c071ed5	0.008247097
90	0xbf001a41	-0.5004006
91	0x3e7ade91	0.24498965
92	0x3da1a63f	0.07893037
93	0x3e10b29a	0.14130631
94	0x3d84168a	0.064496115
95	0x3b8da3e5	0.0043225163
96	0xbe0d6050	-0.13806272
97	0xbe326eac	-0.1742503
98	0x3cb46e2b	0.022025188
99	0x3e483028	0.1954962
100	0xbdbdfe88	-0.092770636
101	0x3e641626	0.22274074
102	0x3e150e39	0.14556207
103	0x3e19e55a	0.15028897
104	0x3d9f6276	0.07782452
105	0xbe2950b0	-0.16534686
106	0x3d7eb324	0.06218256
107	0xbb86b29a	-0.0041106464
108	0x3dce1d14	0.1006414
109	0xbe9174a9	-0.28409317
110	0xbeb81e26	-0.359605
111	0x3de4cb46	0.11171584
112	0x3eb2b301	0.34902194
113	0xbf6d9326	-0.92802656
114	0x3d152d51	0.03642017
115	0x3c92ac18	0.017904326
116	0xbd94a675	-0.07258312
117	0xbd447589	-0.047963653
118	0x3c11d437	0.008900694
119	0x3e37f8cc	0.17966002
120	0x3f595887	0.84900707
121	0xbdb180ba	-0.08667131
122	0xbe20dddc	-0.15709633
123	0x3e8f5c43	0.28000078
124	0x3e1db308	0.15400326
125	0x3e9fb16f	0.3119006
126	0x3d5edac7	0.05440786
127	0x3dba7e35	0.09106103
128	0xbd4c625b	-0.049898487
129	0xbe0fbeff	-0.14037703
130	0x3e3971fc	0.18109888
131	0xb9a48813	-0.000313819
132	0x3d4ecb40	0.050486803
133	0xbca03fd6	-0.01956169
134	0x3f592424	0.8482077
135	0x3dd1a39e	0.102362856
136	0xbc74ae6c	-0.014934164
137	0xbe93993e	-0.28827852
138	0x3f20f2bf	0.628704
139	0xbdc22990	-0.09480584
140	0x3f19152a	0.5979792
141	0xbf003ecd	-0.50095826
142	0x3e935b22	0.28780466
143	0xbd71a0dd	-0.0589913
144	0x3ecae86f	0.39630458
145	0x3f35748a	0.7088095
146	0xbbc890ed	-0.006120792
147	0xbe164323	-0.14674048
148	0x3d40be26	0.04705634
149	0x3ef5ca25	0.48005787
150	0x3f618430	0.8809233
151	0x3d36efda	0.044662334
152	0xbe843e50	-0.2582879
153	0x3cfe2dd5	0.031027714
154	0xbe2966cb	-0.16543119
155	0xbcbd6510	-0.02311948
156	0xbe24f96c	-0.16110772
157	0xbe8f807e	-0.2802772
158	0x3d94268d	0.072339155
159	0x3ecf7646	0.40519923
160	0x3ea67d71	0.3251758
161	0x3e919b4f	0.28438804
162	0xbf03c65c	-0.5147455
163	0xbea1cb0a	-0.3160022
164	0xbf8f8ad6	-1.1214244
165	0xbd93e162	-0.07220723
166	0x3cd17f73	0.025573468
167	0xbe95e13f	-0.29273412
168	0xbf14708b	-0.57984227
169	0x3f376e0b	0.7165229
170	0xbe91df4d	-0.28490677
171	0x3fabb94a	1.3415921
172	0x3e80617a	0.2507437
173	0xbdb081f5	-0.08618537
174	0x3e123ff7	0.14282213
175	0xbe8b3cfc	-0.27194965
176	0x3e920982	0.2852288
177	0x3e534b1c	0.2063412
178	0x3d3178df	0.043328162
179	0x3f3520e8	0.70753336
180	0x3e7831ab	0.24237697
181	0x3e59672f	0.21230768
182	0x3e961237	0.29310772
183	0xbe3c5bac	-0.18394345
184	0xbe4567dc	-0.192779
185	0x3e9d980b	0.30780062
186	0xbea1177e	-0.31463236
187	0xbbf0d69b	-0.0073498017
188	0x3da914e4	0.08255938
189	0x3b85268e	0.004063434
190	0x3eb3f695	0.35149065
191	0x3ebb7b01	0.36617282
192	0xbe8ca710	-0.2747121
193	0xbf8b1a96	-1.0867488
194	0xbef8f253	-0.4862238
195	0xbdf0f0c8	-0.117646754
196	0x3e512754	0.20425159
197	0x3e134a64	0.14383847
198	0xbdac5db2	-0.084163085
199	0xbe8b5d66	-0.27219695
200	0xbded147e	-0.11576174
201	0xbc874541	-0.016512515
202	0xbe5bbe1e	-0.21459243
203	0xbd559a08	-0.05214885
204	0xbd946507	-0.07245832
205	0x3e4fd37f	0.20295523
206	0x3e8f8364	0.2802993
207	0xbeda45a7	-0.42631266
208	0x3e11f209	0.14252485
209	0x3e8e1e7f	0.27757642
210	0x3c600253	0.013672429
211	0x3e331260	0.17487478
212	0x3c6a27fb	0.014291759
213	0x3f2a7058	0.6657767
214	0x3e8ba8f7	0.27277347
215	0x3e5ba83f	0.214509
216	0x3dfa174f	0.12211477
217	0xbe126f26	-0.14300212
218	0x3c9f1ae0	0.019421995
219	0xbf2fbdd9	-0.6864906
220	0x3ecc49b6	0.39899987
221	0x3e2eb8f6	0.17062744
222	0xbd6d9c16	-0.058010183
223	0xbde2771d	-0.11057875
224	0x3e2be7ab	0.16787593
225	0x3c2faed7	0.010722837
226	0xbe9ab9db	-0.3021992
227	0xbe86b8e4	-0.26312935
228	0x3db8f7d2	0.09031643
229	0x3d8c4102	0.06848337
230	0xbe87a4af	-0.2649283
231	0x3dc9f066	0.098603055
232	0x3ead17f0	0.33807325
233	0x3e4cbc50	0.1999371
234	0xbe105f41	-0.14098836
235	0xbb077fcf	-0.0020675545
236	0x3ca28b2f	0.019841759
237	0x3c1ff0e9	0.009762027
238	0x3e28c18f	0.16480087
239	0xbcf5b80f	-0.029994993
240	0xbc365085	-0.011127596
241	0x3e77c350	0.241956
242	0xbd34a7db	-0.044105392
243	0x3ddc20d1	0.10748447
244	0x3d820974	0.06349459
245	0x3f21ab34	0.6315186
246	0x3e20d75f	0.15707158
247	0xbf09083a	-0.5352818
248	0x3e653c4d	0.22386284
249	0xbdb5330f	-0.08847629
250	0xbc7dd364	-0.015492294
251	0x3eb4b71e	0.35295957
252	0x3cee300a	0.029075641
253	0xbe787fe2	-0.24267533
254	0x3e5dfacd	0.21677704
255	0x3d50010d	0.050782252

rnn.weight_hh_l0 f4 [96, 32]
0	0x3e82007b	0.25390992
1	0xbb62a148	-0.0034580994
2	0x3d0c3787	0.034232643
3	0x3d55c5c3	0.052190553
4	0xbed0228c	-0.40651357
5	0x3eada02c	0.33911264
6	0x3def40b4	0.11682263
7	0x3ec3b96c	0.38227403
8	0xbd73f2fa	-0.059557892
9	0x3e131c5e	0.1436629
10	0xbd8e43d7	-0.06946533
11	0x3e24f6cc	0.1610977
12	0x3da5f689	0.081036635
13	0x3ec56ba6	0.38558692
14	0x3ed7cc98	0.4214828
15	0xbe46f533	-0.19429474
16	0x3e1bfe34	0.1523369
17	0x3f01849a	0.5059296
18	0xbe086b56	-0.13322195
19	0xbe5e4f04	-0.2170983
20	0x3e029d45	0.12755306
21	0x3e5cf28e	0.21576902
22	0x3de67ea8	0.112546265
23	0xbed2dee4	-0.41185677
24	0xbd0c3ecb	-0.03423957
25	0x3e8bfc7e	0.27341074
26	0x3e800d38	0.25010085
27	0x3c6ff789	0.014646419
28	0xbe219322	-0.15778783
29	0x3d11f593	0.03563459
30	0xbe3a9775	-0.18221839
31	0xbc27a247	-0.010231561
32	0x3d99bd40	0.075068
33	0xbd72b767	-0.059256937
34	0x3d2a0146	0.04150512
35	0xbca3da99	-0.020001696
36	0x3dcdcd3f	0.10048913
37	0xbe28c7a0	-0.16482401
38	0x3f00e42c	0.5034816
39	0xbdd80358	-0.10547513
40	0xbde6b90a	-0.11265762
41	0xbe615485	-0.22004898
42	0x3e96efc0	0.2947979
43	0x3da491fa	0.08035655
44	0x3edcc5e2	0.43119723
45	0x3e637a7c	0.22214693
46	0x3d3f0a14	0.04664047
47	0x3e03dd95	0.12877496
48	0x3e288933	0.16458587
49	0xbf2f8355	-0.6855977
50	0x3d7c9d50	0.061673462
51	0xbf0d6e37	-0.552463
52	0xbe65c8ed	-0.22439928
53	0x3c7edd78	0.015555732
54	0xbe908a33	-0.28230438
55	0xbe7f1a24	-0.24912316
56	0x3eb2aec8	0.34898973
57	0x3eb27c01	0.34860232
58	0xbe9ba94b	-0.30402598
59	0x3de67e12	0.11254515
60	0x3e2e6cf2	0.17033747
61	0x3e50aa48	0.20377457
62	0x3f37f4c8	0.7185788
63	0x3e2e9852	0.17050293
64	0xbe509aa5	-0.20371492
65	0xbdd164bb	-0.10224291
66	0xbd8b2e1d	-0.06795905
67	0x3ebf6f95	0.37389818
68	0x3dde9c14	0.10869613
69	0x3e83366e	0.25627464
70	0x3de78ac1	0.11305762
71	0xbf098198	-0.5371337
72	0xbe528892	-0.2055991
73	0x3e0204a7	0.12697087
74	0xbe83b556	-0.25724286
75	0xbe4bcb49	-0.19901766
76	0xbe61cfc0	-0.22051907
77	0xbe4bfdcb	-0.19921033
78	0x3ead919e	0.3390016
79	0xbecee968	-0.4041245
80	0x3e02db0b	0.12778871
81	0xbe941d84	-0.2892877
82	0xbeaa9d8a	-0.33323318
83	0xbdb570b2	-0.088593856
84	0xbe4d3a86	-0.20041856
85	0xbe4f848a	-0.20265403
86	0x3ddd46d2	0.108045235
87	0xbda3e861	-0.08003307
88	0x3f04e409	0.51910454
89	0x3e83045b	0.2558926
90	0x3e0a2450	0.13490415
91	0xbeb5d77e	-0.3551597
92	0xbcebd3cd	-0.028787518
93	0xbf036507	-0.5132603
94	0x3dbeddb6	0.09319632
95	0x3ee221f2	0.44166523
96	0xbbeade26	-0.0071675954
97	0xbb05be9f	-0.0020407808
98	0xbee337cb	-0.44378504
99	0xbe55ac2d	-0.20866461
100	0x3ebfca27	0.37458917
101	0xbdaae3c7	-0.08344226
102	0xbe36f845	-0.17868145
103	0x3dc48f64	0.09597662
104	0xbeab1ab8	-0.33418822
105	0x3cd68c55	0.026189962
106	0x3e854be1	0.26034454
107	0xbe2b9429	-0.16755737
108	0x3e2f021c	0.17090648
109	0xbe122265	-0.14270933
110	0x3e919dd6	0.28440732
111	0xbee2a7c9	-0.44268635
112	0x3d722628	0.05911842
113	0xbe7df250	-0.24799466
114	0xbe82d694	-0.25554335
115	0x3e3a88f9	0.18216313
116	0xbd699820	-0.057029843
117	0x3e484116	0.19556078
118	0xbda98181	-0.08276654
119	0xbe934d26	-0.28769797
120	0x3d262a06	0.04056742
121	0x3c6307a2	0.0138568
122	0x3f04704c	0.5173385
123	0xbcc6f9d7	-0.024289055
124	0xbd4ea108	-0.05044654
125	0x3d9230d8	0.071382225
126	0xbcaf5e39	-0.021407234
127	0x3e757960	0.23972082
128	0xbcf31b04	-0.029675968
129	0x3e0fdcc6	0.14049062
130	0x3c9246fa	0.01785611
131	0x3efdd4ca	0.49576408
132	0xbe6256ab	-0.22103374
133	0x3c8cecaa	0.017202694
134	0xbe92e09b	-0.28686985
135	0x3db3b486	0.087746665
136	0xbe91a2c0	-0.2844448
137	0xbeae316a	-0.34022075
138	0x3e3e064b	0.18557088
139	0x3f17c61c	0.59286666
140	0xbeb85447	-0.360018
141	0xbe5708e0	-0.2099948
142	0x3e9ab3ce	0.30215305
143	0xbe1109bc	-0.1416387
144	0xbe89d29d	-0.26918498
145	0x3dcbda3c	0.09953734
146	0x3ede3d9d	0.43406382
147	0xbdb2c929	-0.087297745
148	0x3e095e0d	0.13414784
149	0x3d748dfc	0.05970572
150	0x3ea52aa5	0.32259098
151	0x3bc83a03	0.006110431
152	0xbef0bbd8	-0.47018313
153	0xbec5ee0c	-0.38658178
154	0x3c9c02fb	0.01904439
155	0xbdbd6110	-0.09247029
156	0x3ef6c956	0.48200482
157	0x3e96fabf	0.2948818
158	0xbea0e68d	-0.31425896
159	0x3e72aa78	0.23697841
160	0x3e67046d	0.22560282
161	0xbd8c59bf	-0.06853055
162	0xbceb250c	-0.028704189
163	0xbe416541	-0.18886282
164	0xbeb5c0bd	-0.3549861
165	0x3dc130de	0.09433149
166	0x3dbade2a	0.09124406
167	0x3ddb191c	0.106981486
168	0x3d238aeb	0.039927404
169	0x3e04dfc1	0.1297598
170	0xbcd8b736	-0.02645455
171	0xbeae174b	-0.34002146
172	0x3c0d4193	0.008621591
173	0x3dff2469	0.124581166
174	0x3e5fdda1	0.21861888
175	0xbed3530c	-0.41274297
176	0x3efb4d8f	0.4908261
177	0x3cff31a4	0.0311516
178	0xbeaa4c8f	-0.33261535
179	0xbe48937f	-0.19587515
180	0xbdd37f69	-0.10327036
181	0x3f24c45d	0.64362127
182	0x3d9e661c	0.077343196
183	0xbda5c6d5	-0.08094565
184	0xbccd1099	-0.025032328
185	0x3e72b5c7	0.23702155
186	0x3e990cb1	0.29892495
187	0x3daaff4e	0.08349477
188	0xbe05e774	-0.13076574
189	0x3e4c864d	0.19973107
190	0x3e8d8bcd	0.27645722
191	0xbd730b9d	-0.059337247
192	0xbdba41e0	-0.09094596
193	0xbd2b7974	-0.041863874
194	0xbe8af1e3	-0.2713767
195	0x3e70407a	0.23462096
196	0x3dcb7667	0.09934693
197	0xbf018d74	-0.50606465
198	0x3ec0fca9	0.37692764
199	0xbe6548fe	-0.22391126
200	0x3c16022d	0.009155792
201	0x3e4273cb	0.18989484
202	0x3d8e80f4	0.069581896
203	0xbe2a3b1b	-0.1662411
204	0x3eb88096	0.36035603
205	0x3dac363e	0.084087834
206	0xbd8d6f4f	-0.06905996
207	0x3ecf3001	0.40466312
208	0xbec6b425	-0.38809314
209	0x3e3eb169	0.18622364
210	0xbe145a92	-0.14487675
211	0x3ed68bdd	0.41903582
212	0xbe843a01	-0.25825503
213	0xbe49f512	-0.19722393
214	0xbe396da0	-0.18108225
215	0xbed127a1	-0.40850547
216	0xbe9291e5	-0.28626934
217	0xbd70d2f1	-0.05879492
218	0x3e97d58a	0.29655105
219	0xbead4260	-0.33839703
220	0xbde2e41e	-0.11078666
221	0xbe04895b	-0.12943022
222	0xbdc0f330	-0.09421384
223	0xbcd7cc76	-0.026342612
224	0xbeabd16b	-0.3355821
225	0x3da785be	0.08179806
226	0xbe4ad577	-0.19807993
227	0x3de1bf03	0.11022761
228	0xbc2cf102	-0.010555508
229	0xbf1a1185	-0.6018298
230	0x3e8c976a	0.2745927
231	0xbd60711f	-0.05479538
232	0x3ed2434c	0.41066968
233	0xbebe7e1e	-0.37205595
234	0x3e61cd0c	0.22050875
235	0xbe508492	-0.20363072
236	0x3cd635c5	0.026148686
237	0x3c07ef3f	0.008296787
238	0x3ee556ca	0.44792777
239	0x3e1df166	0.15424117
240	0xbec12770	-0.377254
241	0xbe9e452b	-0.30912146
242	0x3e0605bf	0.1308813
243	0xbea9f8f4	-0.3319775
244	0x3de76e18	0.113002956
245	0x3e69d842	0.22836402
246	0xbe2e6535	-0.17030795
247	0xbcd1d536	-0.025614362
248	0xbde3dc4f	-0.11126005
249	0xbd7b6afd	-0.06138133
250	0xbecbb75c	-0.3978833
251	0x3da8bbf5	0.08238975
252	0x3de8d86a	0.11369403
253	0x3ec70bcf	0.38876197
254	0x3b1ed9d6	0.0024238727
255	0xbe999446	-0.29995936

rnn.bias_ih_l0 f4 [96]
0	0x3e92eba7	0.28695413
1	0x3c1d7b49	0.009611913
2	0xbea5553a	-0.32291585
3	0xbdc7f1e3	-0.09762933
4	0xbc5a1e9d	-0.013312963
5	0x3d8fdeb4	0.07024899
6	0x3e8d9755	0.2765452
7	0xbda6fb49	-0.081533976
8	0xbd3daa52	-0.04630501
9	0x3ddeaf20	0.10873246
10	0xbe82d5f2	-0.25553852
11	0xbe38aba4	-0.18034226
12	0xbd76e753	-0.0602792
13	0xbdb3a3bf	-0.087714665
14	0xbd79485d	-0.060860027
15	0xbe2c9050	-0.16851926
16	0x3d312e45	0.043257017
17	0x3d08bc4d	0.033382703
18	0x3db7c1a4	0.08972481
19	0xbca59561	-0.020212831
20	0x3e8f5345	0.27993217
21	0xbddc8514	-0.1076757
22	0xbdba98ee	-0.091112
23	0x3eaef743	0.3417302
24	0x3dffd43f	0.124916546
25	0x3e8419f2	0.25801045
26	0x3cdab806	0.026699077
27	0x3e1a586a	0.1507279
28	0xbc252411	-0.0100794
29	0x3f063352	0.5242206
30	0xbdd552c9	-0.10416181
31	0x3d19bb01	0.037531856
32	0x3bdab3f9	0.0066742864
33	0x3eac36e7	0.33635637
34	0x3e2f7228	0.17133391
35	0x3ec71cfa	0.38889295
36	0x3e224a95	0.15848763
37	0x3ebfaadb	0.3743504
38	0xbe4b504a	-0.19854847
39	0x3efc9f5b	0.4934033
40	0x3e8a597b	0.27021393
41	0x3eaef01e	0.3416757
42	0x3e7550c6	0.23956594
43	0x3e64f679	0.22359647
44	0xbd730a0f	-0.059335764
45	0x3e8096bd	0.25115004
46	0xbe238aa2	-0.15970853
47	0xbcefd993	-0.029278552
48	0x3ee7268d	0.451466
49	0x3e6b492f	0.22977136
50	0xbe2a676a	-0.16641012
51	0x3f2c2732	0.6724731
52	0xbe5f4ce4	-0.21806675
53	0x3e795661	0.24349357
54	0x3e868f44	0.26281178
55	0x3e856f59	0.26061514
56	0x3e4bb9c8	0.19895089
57	0xbdde0c74	-0.10842219
58	0x3f0b8d93	0.545129
59	0x3eeb999e	0.46015638
60	0x3e804724	0.25054276
61	0xbef40bbd	-0.47665206
62	0x3e948c21	0.2901316
63	0x3f35b2ae	0.7097577
64	0x3daeb762	0.08531071
65	0x3e51e263	0.20496516
66	0x3af74f8a	0.0018868309
67	0x3e432d6f	0.190603
68	0xbd9d9183	-0.0769377
69	0xbe237035	-0.15960772
70	0xbe7af747	-0.24508391
71	0x3e35cb84	0.17753416
72	0x3e44628e	0.1917822
73	0xbd61c1b5	-0.055116374
74	0xbd2baae2	-0.041911013
75	0x3d88b5d4	0.06675306
76	0xbe066522	-0.13124517
77	0x3cac9ddc	0.021071367
78	0xbcacdbd9	-0.021100925
79	0x3e00b4ea	0.12569013
80	0xbe1554fa	-0.14583197
81	0xbd505535	-0.05086251
82	0x3d9d2b73	0.07674303
83	0xbe4ff049	-0.20306505
84	0xbd82587e	-0.06364535
85	0xbdba9bdf	-0.09111761
86	0x3e87b3e3	0.2650443
87	0x3e043012	0.12908962
88	0xbd99750f	-0.0749303
89	0xbd43c984	-0.047799602
90	0x3df5f276	0.120091364
91	0x3d598679	0.05310676
92	0xbd2b2c3c	-0.041790232
93	0xbd43258a	-0.047643222
94	0xbd58e007	-0.052948024
95	0xbdf84dc0	-0.12124205

rnn.bias_hh_l0 f4 [96]
0	0x3ea0ce57	0.31407425
1	0xbd5ac3b8	-0.05340931
2	0xbe1eb6a5	-0.15499361
3	0xbe6ebd21	-0.23314334
4	0x3e6b7ccf	0.2299683
5	0x3d5f3815	0.054496843
6	0x3e7c3fd6	0.24633726
7	0x3bad503b	0.005289105
8	0xbd68daa0	-0.056849122
9	0x3d484ce4	0.048901454
10	0xbe10ddaa	-0.14147058
11	0xbe59b36b	-0.21259849
12	0xbdb530cb	-0.08847197
13	0xbda19f0b	-0.07891663
14	0x3d361891	0.044457022
15	0xbdbf241a	-0.09333058
16	0x3e6baf60	0.23016119
17	0xbd927dfc	-0.07152936
18	0x3e7fc55a	0.24977627
19	0xbd497e6f	-0.049192842
20	0x3e43f8ad	0.19137831
21	0xbbac778b	-0.005263274
22	0xbe39b0a4	-0.1813379
23	0x3e878c14	0.2647406
24	0x3c09b838	0.008405738
25	0x3e025761	0.12728645
26	0xbdf9cf17	-0.121977024
27	0x3e92cc40	0.28671455
28	0xbe1a5382	-0.15070918
29	0x3e868375	0.2627217
30	0x3d26bbb5	0.040706355
31	0x3d675d24	0.05648531
32	0x3d0f2a6f	0.034952577
33	0x3ef528ae	0.478826
34	0x3ebe8b50	0.37215662
35	0x3f2121ae	0.62942016
36	0xbc61f8c6	-0.013792222
37	0x3efb085b	0.49029812
38	0xbe92a1b0	-0.28638983
39	0x3f0ce15a	0.5503136
40	0x3e8beb78	0.27328086
41	0x3d807088	0.06271464
42	0x3e351a04	0.17685705
43	0xbd04ea11	-0.032449786
44	0x3dcaf263	0.09909513
45	0x3f11095e	0.5665492
46	0x3d053b04	0.032526985
47	0x3e0c14e5	0.13679846
48	0x3ea1d099	0.3160446
49	0x3ece8f91	0.40343907
50	0xbe6f812d	-0.2338912
51	0x3f6ef54c	0.93343043
52	0xbcbcb993	-0.023037707
53	0x3e8ae524	0.27127945
54	0x3eab65c5	0.33476081
55	0x3dffb348	0.12485367
56	0x3e6c977c	0.23104662
57	0x3e4da07b	0.2008075
58	0x3f10bb02	0.5653535
59	0x3ebefbd5	0.37301508
60	0x3ea9a428	0.33133054
61	0xbe30585c	-0.17221206
62	0x3c566bc2	0.013087215
63	0x3f1a4f34	0.60277104
64	0x3d9f0264	0.07764128
65	0x3deff51f	0.11716675
66	0xbd3c8b03	-0.04603101
67	0x3e24aa1d	0.16080518
68	0x3e8277ac	0.25481927
69	0x3d1b80c3	0.037964594
70	0xbdae07d4	-0.08497587
71	0x3e0fa9b0	0.14029574
72	0x3e4b096f	0.19827817
73	0xbdbf1fe7	-0.09332257
74	0xbc056133	-0.00814085
75	0x3e2291cd	0.15875931
76	0xbe082c53	-0.13298158
77	0x3dc70801	0.097183235
78	0x3e26f481	0.16304208
79	0xbd061aed	-0.032740522
80	0xbd042d32	-0.032269664
81	0x3e804086	0.25049227
82	0xbdcd882b	-0.100357376
83	0x3c72cbac	0.014819067
84	0xbe23073e	-0.15920731
85	0xbe0d50d5	-0.13800366
86	0x3e0a8e7d	0.13530917
87	0xbdac873f	-0.08424234
88	0xbdedc820	-0.116104364
89	0x3e1523f1	0.14564492
90	0xbdb10f92	-0.08645548
91	0x3deaa922	0.11458041
92	0xbd52e5fa	-0.051488854
93	0xbe9c52ad	-0.30531827
94	0x3e2d88aa	0.16946664
95	0xbde41acb	-0.11137923

fc1.weight f4 [1, 32]
0	0xbff81e94	-1.9384332
1	0x3e60f595	0.21968682
2	0x3eb8f9cc	0.3612808
3	0xbf585fcb	-0.8452117
4	0xbd9482fc	-0.07251546
5	0xbee6a1d6	-0.45045346
6	0xc0430b9b	-3.0475833
7	0xbf9a77d2	-1.2067816
8	0x3ec6bc8a	0.3881572
9	0xbfa51242	-1.2896197
10	0x3f1ce3f5	0.61285335
11	0xbdf819a8	-0.121142685
12	0xbf98cf01	-1.1938173
13	0x3eaee4b2	0.34158856
14	0x403d40a6	2.9570708
15	0x3f988780	1.1916351
16	0xbfd1e050	-1.639658
17	0x3fd0042b	1.6251272
18	0x40241865	2.563989
19	0x3f7cf3ec	0.98809695
20	0x3fd5147f	1.664688
21	0xbf2bf83b	-0.67175645
22	0xbfe1f2b4	-1.7652192
23	0xc00b92eb	-2.1808422
24	0xbfc6ed41	-1.5541154
25	0xbfe4ee2d	-1.7885185
26	0x3f71dc5d	0.9447687
27	0xbefc8d0f	-0.4932637
28	0x3fce9d35	1.6141726
29	0x4056c67d	3.3558648
30	0xbfd03e84	-1.6269078
31	0x3e4e53a4	0.20149094
