models/model_with_modified_loss_with_spl_gamma_0.5_lambda_1.3.pt (torch, 54627 bytes, 5 tensors)

rnn.weight_ih_l0 f4 [96, 104]
000000 9c cb 3d 3e 84 2f d1 bd 8c 27 2f 3e f2 db 34 3e
       0.18534702 -0.10214141 0.1710493 0.17662027
000010 51 17 2a bd 48 fb b5 3e 86 88 0d be 59 50 7d be
       -0.041526143 0.35543275 -0.13821611 -0.24737681
000020 38 08 c2 3d 29 6a 39 3d b5 f8 b8 3e 95 a5 ab be
       0.09474224 0.045267258 0.36127248 -0.33524767
000030 21 e6 a6 3e 71 e3 fd 3d 80 f8 df 3b ab e8 87 3e
       0.3259745 0.12396897 0.0068350434 0.265447
000040 5b cb 2f 3d 7f b6 23 3e de 58 b3 bc 91 77 a4 be
       0.042918544 0.15987585 -0.021892961 -0.32122472
000050 ee ed fc be 90 65 22 3e a8 e3 c4 3d da 76 08 3e
       -0.49400276 0.15859056 0.096137345 0.13326588
000060 e5 14 1a 3f ca 98 07 bf 3d 24 67 be 82 3f 2d bc
       0.6018813 -0.5296751 -0.22572418 -0.0105742235
000070 c1 0d bc b7 df 6c 82 bc ce 25 9e bd ef 18 d5 bd
       -2.2417751e-05 -0.015921054 -0.077220544 -0.10405146
000080 09 ef fb 3d e4 5c 2b 3e 3c cd 79 3f d6 33 ba 3d
       0.12301452 0.16734654 0.9757879 0.09091918
000090 bd 3b 59 3e 8c d0 15 3e a1 19 3e 3e eb 46 41 3e
       0.21214195 0.14630336 0.18564464 0.1887471
0000a0 34 00 6a bd cf 2d 14 3e 52 6d e5 3c 41 76 3c be
       -0.0571291 0.144706 0.02800623 -0.18404485
0000b0 35 cc 0b 3d 17 36 f9 3d 2a b1 ee 3e 2a b1 5d be
       0.034130294 0.1216852 0.4661954 -0.21649614
0000c0 e9 f5 d7 3c 8c b9 dd b8 1b bf fa 3d 7c 6a e9 bb
       0.026362376 -0.00010572662 0.12243482 -0.0071232896
0000d0 0e fd 5e be 3a b6 00 3e a2 44 2c be 0e f0 19 bd
       -0.2177622 0.12569514 -0.16823056 -0.03758245
0000e0 97 67 63 be 54 86 13 3e c5 60 ab be 9d 08 d2 bd
       -0.22207485 0.14406711 -0.33472267 -0.10255549
0000f0 8c 90 19 bf 76 c7 22 bf b1 45 0d bd 6b dc 08 3f
       -0.59986186 -0.63585603 -0.03449029 0.5346133
000100 5c eb d1 3e 23 6e 97 be 81 20 11 be c9 ca bc 3e
       0.40999877 -0.29576215 -0.14172556 0.36873463
000110 cc 60 ac 3d 94 1e a2 3b 59 f0 a1 be 44 c7 24 be
       0.084169 0.004947493 -0.31628683 -0.16091639
000120 ae 91 00 3f 9d 10 3d 3e 76 1a 0b 3f 1a 18 5c 3f
       0.5022229 0.18463369 0.5433725 0.85974276
000130 da 97 0e bf ec 71 9f 3d d6 f7 08 3e fc 97 3d 3e
       -0.5570046 0.07785401 0.13375792 0.18515009
000140 52 81 06 3f 00 21 0a bf 1e bc ef 3d 7f f4 56 3d
       0.5254108 -0.53956604 0.117058024 0.052479263
000150 33 9b 0f 3d a4 ab fd 3a 92 2c 31 bd a2 ce c2 bd
       0.03506012 0.0019353521 -0.043255396 -0.09512068
000160 79 84 02 bf 9a ef 36 bf 82 fd 8c be 84 ba 4c be
       -0.5098339 -0.7145935 -0.2753716 -0.19993025
000170 5d 1e 05 3e 4a d3 d0 3e 80 59 1e be 9b 5e 96 be
       0.12999864 0.407862 -0.15463829 -0.29369053
000180 73 e2 d0 bc 5e 71 64 bd 80 1f ec bc 17 71 71 be
       -0.025498604 -0.055772178 -0.028823614 -0.23578297
000190 70 f2 c9 3c 97 ce 3b 3e 52 a8 ab 3c c4 ae dc be
       0.024651736 0.18340527 0.020954285 -0.43102086
0001a0 15 30 23 be c7 8d fd be 08 bd 10 3e fe ee 57 3d
       -0.1593631 -0.4952223 0.1413461 0.052718155
0001b0 28 3a 85 3b be 69 16 3e b1 10 3f 3d 47 a5 c1 be
       0.0040657707 0.14688775 0.046646778 -0.3782141
0001c0 7f 55 4e bd d8 06 e4 bc 63 34 12 3d 4d fb 67 be
       -0.050374504 -0.027835295 0.03569449 -0.22654457
0001d0 67 52 83 3e f4 69 c6 3d 7c 70 e1 3c 1d a2 a3 3e
       0.25648805 0.09688178 0.027519457 0.3195962
0001e0 20 99 7d be 77 20 af 3d 0f 7d 0b 3f c1 1b 90 3e
       -0.24765444 0.08551114 0.544877 0.28146175
0001f0 2d 1a 44 3e 01 68 55 3d c5 10 95 be 1f 18 30 3e
       0.1915061 0.05210114 -0.29114357 0.17196701
000200 5e 8e f5 3e 8f b6 9f be 10 5c 7d be 6a ea b4 bb
       0.4796018 -0.3119397 -0.2474215 -0.0055211084
000210 7f 5f b8 b7 eb 83 4e bb 42 80 94 3e ee 9c 9a bd
       -2.1978978e-05 -0.0031511735 0.29004103 -0.07549463
000220 67 f7 bb 3d e9 d7 73 3e af c4 c6 be b9 6d 41 be
       0.091780476 0.23812832 -0.38821933 -0.18889512
000230 51 4e 7d be 3f 7f 14 be 62 67 a9 bc 8c 2d ef bd
       -0.24736907 -0.14501666 -0.02067918 -0.11678609
000240 95 7b c5 bc 43 ba 66 3d 3e c1 00 3d 84 f2 f9 3c
       -0.02410678 0.056329977 0.03143429 0.030511148
000250 0c 05 6d 3d ef 1a 73 be a2 dd 05 3f 6b 07 b4 bd
       0.05786614 -0.23740743 0.5229131 -0.08790477
000260 d0 7d 1a 3e b9 cc 08 bb 9b e2 35 be d4 e3 c6 bc
       0.15087056 -0.0020873977 -0.17762224 -0.024278559
000270 34 73 3b be a9 c7 8d be b5 cd 93 bd a0 04 c2 be
       -0.18305665 -0.2769139 -0.0721697 -0.37894154
000280 f7 60 af 3e 3f 41 57 bf f6 9b 0d 3e 83 22 81 bb
       0.34253666 -0.8408393 0.13829026 -0.0039408817
000290 46 a9 eb be 55 6e f9 3c e8 e9 a3 3d db f9 2b be
       -0.46027583 0.030448118 0.080035985 -0.16794531
0002a0 5c e3 02 3e 77 8b f5 be 35 d2 0f bf 61 ff ad 3d
       0.12782043 -0.47957966 -0.56180125 0.08495975
0002b0 d7 4b 10 3e f1 58 03 bd 77 ac b4 be 53 4e 37 be
       0.1409143 -0.032067243 -0.3528783 -0.17900972
0002c0 88 e2 23 3e ae 98 45 bd aa 17 31 be af 1e c4 3e
       0.16004384 -0.04824131 -0.17294183 0.3830466
0002d0 76 9d 81 3d f7 50 a9 bd 6f 31 8c be 22 9e 00 3e
       0.063288614 -0.08267396 -0.27381465 0.12560323
0002e0 a2 02 34 be 86 8c df be bc 14 b3 bd b9 25 8f 3c
       -0.1757913 -0.43661898 -0.08744189 0.017474042
0002f0 38 5f 64 3d 88 21 ac bd 25 2b 54 bd 87 a7 fe 3d
       0.05575487 -0.08404833 -0.05179896 0.12434297
000300 42 fa 00 be b5 77 19 bd 9e 53 e0 bd 10 0a 69 bd
       -0.12595466 -0.037467677 -0.10953449 -0.056894362
000310 9c c1 4b 3e d5 b5 03 3f 2f 4d 8b 3e 29 4d e3 3e
       0.19898075 0.5144933 0.27207324 0.44394806
000320 4b d4 de bd 26 57 6a be 61 1c 5b 3e 1c 02 07 bd
       -0.108803354 -0.22884807 0.21397544 -0.032960996
000330 9d 85 0b be 86 02 b5 3e b5 b2 4a bf 1d 2d fb be
       -0.13625188 0.35353488 -0.79178935 -0.49057856
000340 0f 2f 0b be 70 02 11 3d 6a fd b9 3d 06 fe b4 be
       -0.1359217 0.035402715 0.09081538 -0.35350055
000350 a7 41 2e 3c 60 ed 42 be 0c cf 3a 3c a1 4a 54 be
       0.01063577 -0.19035864 0.011401903 -0.20731594
000360 81 67 ad bd 0e a3 6c bd 75 8d 0e be 3a 85 36 be
       -0.084670074 -0.05777269 -0.13921149 -0.1782426
000370 34 04 c0 3e c4 93 29 3c 12 1e 16 3c 29 a0 a9 bd
       0.37503207 0.0103501715 0.009162443 -0.08282501
000380 45 cb 0b 3c 0d 35 8a 3e bf f0 8f be 5a 9e fc bd
       0.00853235 0.269936 -0.28113362 -0.12334891
000390 26 52 32 3d fc 60 1b 3d 8c d0 84 bd b5 0f ee bd
       0.043535374 0.03793429 -0.0648509 -0.1162409
0003a0 f2 3d 8b 3d 6b 27 3c 3e cb 52 e0 be 0a 9c f0 36
       0.067989245 0.18374412 -0.43813166 7.1707227e-06
0003b0 66 c5 e2 36 f9 da fb 32 ba 5a e4 3e ad 23 9f bd
       6.758305e-06 2.9319823e-08 0.4460047 -0.077704765
0003c0 04 0f 2f 3c 83 5d 30 3e a1 5e aa be b8 70 91 3e
       0.010684732 0.17223172 -0.3327532 0.2840631
0003d0 8a 2c 39 be cc 4a 87 bd cc bb 55 bd 84 7e 36 bd
       -0.18083397 -0.06606063 -0.05218105 -0.04455425
0003e0 5e 55 c4 bd eb 20 77 be 2c 5d 24 3f 3b a2 52 3e
       -0.09586595 -0.24133651 0.6420467 0.20569699
0003f0 9e dd d6 bd b1 94 83 3e 49 4a 89 3e 0f 16 e2 3d
       -0.10491489 0.2569938 0.26814488 0.110393636

rnn.weight_hh_l0 f4 [96, 32]
000000 86 10 99 3e 13 de 36 be 59 b6 8f 3d cc 40 b8 3e
       0.2989542 -0.17858152 0.07017202 0.35986936
000010 2e 68 f5 3d df f4 e1 3d 75 14 2c 3c a0 0d 9d 3e
       0.11982761 0.110330336 0.010502924 0.30674458
000020 34 f6 52 3e d2 77 0d be d0 79 53 3d a3 e9 a4 bd
       0.20601732 -0.13815239 0.05162984 -0.08052375
000030 c2 35 a5 3d 33 27 3d 3e 59 6d 32 3e 13 dd ba 3d
       0.08066894 0.18471985 0.17424525 0.09124198
000040 b9 0f 9c 3e d8 d0 ea 3d c6 75 5d 3e 33 de 63 3e
       0.30480745 0.11465615 0.21626958 0.22252731
000050 f2 5e 9d 3c e9 ea 3e be 5e fe 0b be 19 cd 83 bc
       0.019210313 -0.18644299 -0.13671252 -0.01608901
000060 24 dd 8a be 49 16 d4 3c 4e 30 ee 3e de 7c 94 3e
       -0.27121842 0.025889533 0.4652123 0.29001516
000070 58 bb e8 bd 28 9c d7 bd 4d 76 86 3d 75 7f 3b be
       -0.11363858 -0.10527831 0.06565533 -0.1831034
000080 9c 88 1c be 17 b5 d0 3e 45 e6 bf bd 53 39 68 3e
       -0.15286487 0.4076316 -0.09370092 0.22678117
000090 a8 6a a5 3d 6b a5 01 be 3e 63 bf 3c 63 c2 c9 3e
       0.08076984 -0.12660758 0.023362752 0.39406118
0000a0 14 a2 83 bd b3 1d 7c 3e 72 ea 40 bb d5 c1 31 3c
       -0.06427398 0.24620704 -0.0029436615 0.010849436
0000b0 86 3d a7 be 86 d3 ec bd c2 08 f9 bd 21 f2 22 be
       -0.32664126 -0.115637824 -0.121598735 -0.15912677
0000c0 07 6d 91 3e 0f c1 5f 3e 94 8b 2d be 92 27 b6 3d
       0.28403494 0.2185099 -0.16947776 0.08894266
0000d0 c4 4d c4 3e a3 19 6d be fd cc 35 3e 50 94 01 3e
       0.3834058 -0.23154311 0.17753978 0.12654233
0000e0 5e b8 ea 3d 75 36 ad 3e 90 5b 59 3e 66 4b f1 3d
       0.114609465 0.3383061 0.21226335 0.11781959
0000f0 d0 c2 54 3e cb d5 c6 3d 73 93 98 3e d6 d0 63 be
       0.2077744 0.097087465 0.29799995 -0.22247633
000100 83 9b 78 3d dd 7f fb bd 29 73 f2 bd ab 85 a7 3e
       0.060695183 -0.12280247 -0.11838371 0.32719168
000110 bf 48 98 bd 47 2a 94 be 6b 5d 6a 3e 1c b9 73 be
       -0.0743575 -0.28938505 0.22887199 -0.23801082
000120 fe 02 28 3e a1 25 8f 3e d8 4c f0 bd a2 23 6e be
       0.16407391 0.27958396 -0.11733407 -0.2325578
000130 7b 4d 93 3d a2 22 eb be 35 41 f5 bd 9c 8e 8b 3e
       0.071925126 -0.4592486 -0.11975328 0.2725724
000140 bc 89 a4 bd a5 66 aa bd d9 08 1f bd 75 8a e6 3d
       -0.08034083 -0.08320359 -0.038826797 0.11256877
000150 05 98 8e 3e 8a e5 0e bd 50 b1 b8 bd 85 9f 7b 3d
       0.27850357 -0.034886874 -0.09018195 0.061431427
000160 b2 3f f8 3d 4e 48 c4 3c 34 86 0d 3e d2 db b0 3c
       0.12121524 0.023960259 0.13820726 0.021589193
000170 eb c7 33 bc e3 c9 4f be b1 5d 0c bc bd 37 3e 3e
       -0.010972957 -0.20291857 -0.00856726 0.1857595
000180 42 30 06 3e cd d5 a6 3e 1e 95 09 3e 5e e6 89 3e
       0.13104346 0.32584992 0.1343579 0.2693357
000190 9f 16 62 bc 4e 80 33 be 45 36 d6 be 50 64 1a be
       -0.013799339 -0.17529413 -0.4183828 -0.15077329
0001a0 f7 d8 f3 3d ba ef ef 3d 88 cc 86 3e 78 ef ab bc
       0.11906617 0.11715646 0.2632792 -0.020988211
0001b0 1d b7 c0 3e 54 90 0b 3e d3 c1 01 3e 76 6a 44 3e
       0.37639704 0.13629276 0.12671594 0.19181237
0001c0 1a ba 8b 3e a6 3d 68 3e 22 5f 67 3e d9 67 84 be
       0.27290422 0.22679767 0.22594884 -0.2586048
0001d0 94 79 56 be e9 5b e3 3d eb f1 7d bd d0 9e 5c bc
       -0.20944816 0.11101515 -0.06199829 -0.013465598
0001e0 e8 9e 92 bc 48 f5 35 3b 8f cb 0f 3f 84 b8 80 be
       -0.017898038 0.0027764607 0.5616998 -0.25140774
0001f0 cc 60 06 bf 24 88 09 3e 38 1b 04 be ab fb d5 bc
       -0.5249145 0.1343084 -0.12901008 -0.026120981
000200 40 4e 78 3e d4 1c 30 be a5 58 14 be 54 b9 e0 3e
       0.242486 -0.17198497 -0.1448694 0.43891394
000210 9d 46 00 bf 41 5c 90 3d 98 06 63 bf e9 54 7b be
       -0.5010775 0.07048846 -0.88681936 -0.2454411
000220 58 5c 86 be b4 50 69 3e 26 8c 95 3e 69 6b 0f 3e
       -0.26242328 0.22784692 0.29208487 0.14005817
000230 84 32 35 3d 35 f4 87 bc a8 9f f5 be af f4 25 3e
       0.04423763 -0.01659594 -0.4797337 0.1620662
000240 f0 cc 11 be ef 38 3a bd ed 47 f5 bd cc fa 4f be
       -0.14238334 -0.045464452 -0.119766094 -0.20310515
000250 98 c7 a3 3d 8c 9c e4 be 6c 8f 35 bf e5 73 9c be
       0.07997054 -0.44650686 -0.7092197 -0.3055717
000260 d6 5e b8 3e b9 a4 99 3e 55 e1 00 3f ce ab 5f be
       0.36009854 0.30008486 0.5034383 -0.21842882
000270 40 40 b1 be 13 e5 be 3e 92 ba 27 3d 37 f4 20 3f
       -0.3461933 0.37284145 0.04094941 0.6287264
000280 e0 4c ba 3e 72 3f d9 3e fe 41 68 3e 9b ce 29 bf
       0.36386776 0.42431217 0.22681424 -0.6633088
000290 a3 eb 91 3e 9c 4c 24 be ca 6b 39 bb 40 d0 7f be
       0.2850009 -0.16044849 -0.0028293007 -0.24981785
0002a0 b7 c1 da bd 1f 8f 62 3e e1 58 a3 3e 93 70 85 3e
       -0.106814794 0.22124909 0.31903747 0.2606245
0002b0 23 a0 81 bd 40 6b 3d 3e 07 8d 73 be b2 77 9c be
       -0.06329372 0.18497944 -0.23784266 -0.3056007
0002c0 89 eb 0c be 2a 4c 4c 3e e3 7f fd bd db 5b 4e bd
       -0.13761725 0.1995093 -0.12377908 -0.05038057
0002d0 6a 68 de be 34 23 fc be bf a3 6a 3e 1d e8 b1 3e
       -0.43439037 -0.49245608 0.22914027 0.347474
0002e0 18 5e e8 3d 34 12 d6 3c 46 f3 81 3d 42 29 82 be
       0.11346072 0.026131727 0.06345229 -0.25422102
0002f0 cd ed 22 3e f5 4e b7 bc 34 38 24 3e f7 73 96 be
       0.15911026 -0.022376517 0.16037065 -0.2938535
000300 ea cd 46 be 24 55 cd be 16 91 b3 be ef 1b 8d bd
       -0.19414487 -0.4010402 -0.3507163 -0.068900935
000310 f3 8a d7 be 28 51 bf 3e 57 18 f4 bd 86 2f 41 3e
       -0.42098197 0.37366605 -0.11918705 0.18865785
000320 0f 9b 09 3e 17 92 cc be 3d eb 51 be 41 68 e6 3d
       0.13438056 -0.39955208 -0.20499893 0.112503536
000330 43 c9 44 3e 39 56 15 be 15 8d ab 3d ed f0 a6 3d
       0.192174 -0.14583673 0.08376519 0.08151422
000340 cd da fb 3e 70 22 d5 be be a3 27 3e 41 66 c6 bc
       0.4919037 -0.41627836 0.16371056 -0.02421868
000350 05 f1 99 3e d1 77 44 be 12 3d 45 3e 6c 14 0a 3f
       0.30066696 -0.19186331 0.19261578 0.5393741
000360 7b 4c 8c 3d 37 02 ab 3e d0 64 11 3e 4f 56 87 bd
       0.06850525 0.33400127 0.14198613 -0.06608259
000370 76 51 d8 be 0f 94 55 3c 7c fd f6 bd c7 13 95 3e
       -0.4224965 0.013035788 -0.12060067 0.2911665
000380 3e 29 a7 bd 2e 34 85 be a4 07 99 3d 93 d7 e4 3e
       -0.08162163 -0.26016372 0.074721605 0.4469572
000390 62 c8 18 3e 15 4a 87 3d 1e 77 1b be f3 0d e4 3d
       0.1492019 0.06605927 -0.15182158 0.11135473
0003a0 cf f2 a0 bd d3 ab 26 3e fd 02 57 be f3 48 86 be
       -0.07858812 0.16276483 -0.20997234 -0.2622753
0003b0 d0 c2 70 3b c0 c2 58 bd fa 82 87 bd cd 42 83 3e
       0.003673721 -0.052920103 -0.06616779 0.25636902
0003c0 e8 60 b3 3e 2b d9 b4 be b1 47 fb 3d 10 c9 8c 3e
       0.3503487 -0.35321936 0.122695334 0.2749715
0003d0 c9 74 42 bd 87 d9 77 bd f5 9a b1 bd 5f 24 85 3c
       -0.047474656 -0.060510185 -0.08672134 0.016252695
0003e0 f3 58 57 3e bc 05 81 3e ef 20 38 3e f8 c2 83 be
       0.21030025 0.25199687 0.17981313 -0.25734687
0003f0 13 59 a6 bd 5b f4 fe be 28 f9 86 ba 4a 73 33 3d
       -0.08122458 -0.49795803 -0.0010297643 0.04381112

rnn.bias_ih_l0 f4 [96]
000000 94 5b fc bc 42 ee 0a be f3 fb 73 3a 5a e8 36 bd
       -0.030805387 -0.1356745 0.0009307258 -0.04465518
000010 cd 21 2f bd 06 6e 69 3e 3f eb 08 3e 8e e7 c1 bd
       -0.042756844 0.22795877 0.1337099 -0.09467994
000020 a5 3f 3a 3e 21 a8 37 3d b3 f3 38 3e 09 d5 9e 3e
       0.18188341 0.044838075 0.18061714 0.31021908
000030 46 ff 79 3e 18 7c ad 3e af c9 79 bd f0 df 34 3e
       0.24413785 0.3388374 -0.060983356 0.1766355
000040 42 69 1e be 7b 3c 37 be c6 2b 20 3e 32 62 dd 3d
       -0.1546984 -0.17894165 0.15641698 0.10809745
000050 7c 13 a8 bd 57 43 97 3e 2f 95 25 3e 44 53 49 3e
       -0.08206841 0.29543564 0.1617019 0.1966067
000060 e8 4d 5f 3e 87 5f 86 3c 5a 6e e1 3d 8f 5c c6 bd
       0.21807063 0.016402973 0.11007376 -0.09685623
000070 f1 69 73 be 89 93 8f 3e 45 0d 0b 3f b1 34 83 3e
       -0.23770882 0.28042248 0.5431712 0.25626138
000080 49 7d 10 3f e9 81 e3 3e d1 32 3f 3e 5f 72 89 3e
       0.5644117 0.4443505 0.18671729 0.2684507
000090 7f 56 8d bd c4 37 9d bd c9 ac 0a 3f 00 b0 f6 3d
       -0.069012634 -0.07676652 0.541699 0.12045288
0000a0 be 36 e9 3e 49 6d 9b 3e d9 38 18 3f 1c ad 3e be
       0.45549577 0.30356815 0.5946174 -0.18620723
0000b0 04 07 a3 3e 24 9d 12 bf 5b 6f ba 3e 06 99 25 bd
       0.3184129 -0.5727103 0.36413082 -0.040429138
0000c0 5c 05 d1 3e 37 ce 46 bd a2 fe c6 3e ec be 18 3f
       0.408244 -0.048536506 0.38866144 0.59666324
0000d0 8d 4f 12 3f 17 a4 2c 3f 9b ae 14 3f bf 3d bb 3e
       0.57152635 0.6743788 0.58078927 0.36570546
0000e0 75 1b 60 be 7d e2 1e 3e 84 38 c9 3e ec 30 02 3e
       -0.21885474 0.15516086 0.3930093 0.12713975
0000f0 5b 5c ed 3e 8c ba 71 3e ce 49 59 bd 9f 89 47 be
       0.46359524 0.23606318 -0.0530489 -0.19486092
000100 2d 55 85 3d 48 0c ea 3d 8d f4 66 be 0b c6 b1 3d
       0.065103866 0.11428124 -0.22554226 0.08680352
000110 9f a0 46 3e 96 15 88 3d db 63 04 3d 0d 2c 85 3d
       0.1939721 0.06644742 0.032321792 0.06502543
000120 35 7a b4 bd a2 55 cc 3d cd 91 1e be 43 56 50 3e
       -0.08812372 0.09977271 -0.15485306 0.20345406
000130 0a cb 09 be c8 e1 2f 3c c7 88 2b be d1 a9 be 3c
       -0.1345636 0.010734983 -0.16751395 0.023274334
000140 e4 29 f8 3d 1e 72 d3 3d ab 50 5b 3e 95 a0 2a be
       0.12117365 0.103245005 0.21417491 -0.1666282
000150 25 49 6d 3e a4 c2 aa bd af 36 a8 3c f9 e2 6f 3d
       0.23172434 -0.08337906 0.020533888 0.058566067
000160 ab 61 41 bd 3f 57 fc 3d 93 21 6a bc 5d ea 79 3e
       -0.047212284 0.12321328 -0.014290231 0.24405809
000170 a4 31 44 bb e2 a5 52 3c e6 58 81 3c c1 8b 60 be
       -0.0029936815 0.012856932 0.01578946 -0.21928312

rnn.bias_hh_l0 f4 [96]
000000 da 4e 6a be e0 e9 3b be 67 8c 46 be b7 a1 fb bd
       -0.22881642 -0.18350935 -0.19389497 -0.12286704
000010 30 33 de 3d 49 bd e1 3d 3e 29 ec 3d ff 55 7c be
       0.10849607 0.110224314 0.11531304 -0.2464218
000020 4f 29 02 3e 5b 37 0f 3e e5 5a fd 39 44 a6 f3 3d
       0.1271107 0.1398596 0.00048323642 0.11896947
000030 ce c4 56 3e 7e 8f a3 3e 1f 3c 8b bd 33 4e b2 3e
       0.20973513 0.31945413 -0.067985766 0.34825286
000040 68 46 34 be 82 4c c1 3d cc 75 39 3d b8 1c 19 3d
       -0.17604983 0.09438421 0.045278355 0.037380904
000050 f2 d7 b9 bd 96 f0 15 3e 9d cb 60 3e 7e 0e 12 3e
       -0.090743914 0.14642558 0.21952672 0.14263341
000060 50 10 fe bc 68 a2 7e 3d a9 4c 5b 3c 1d 66 1c 3e
       -0.031013638 0.0621666 0.013384976 0.15273328
000070 ef 41 84 bb ba d7 cc 3c ec c7 a6 3e dc ed 4d bb
       -0.00403618 0.02500521 0.32574403 -0.0031422293
000080 4e 01 31 3f 12 bf 1c 3f ed 4d 08 3e 9a 89 f1 3e
       0.69142616 0.6122905 0.13310976 0.47175294
000090 20 fd 12 3e 39 69 a0 bd 0e 2f 14 3f dc d5 70 3e
       0.14354372 -0.0783257 0.578843 0.23519081
0000a0 c6 bc 8e 3e 6e 11 c5 3e ff 22 cc 3e e4 df 4a be
       0.27878398 0.3848986 0.3987045 -0.1981197
0000b0 d1 40 99 3e ab 2b 36 bf 47 90 e8 3d af 0a 17 bb
       0.29932263 -0.7116038 0.11355644 -0.002304714
0000c0 e1 2d df 3e 49 69 59 3e 5d 47 09 3f b1 2e 19 3f
       0.4358969 0.2123157 0.53624517 0.5983687
0000d0 ce 7b d4 3e 80 9f 18 3f 4a 45 f9 3e ea 0b 25 3f
       0.41500705 0.5961838 0.48685676 0.64471304
0000e0 f0 e6 a9 3c 32 04 5a 3e b8 6b 8d 3e 8c 32 e4 3d
       0.020740002 0.21290663 0.27621245 0.111424536
0000f0 bd c3 e7 3e cd 61 a7 3e ed 2b 00 be 8b 7c 45 3d
       0.45266524 0.32691804 -0.12516756 0.048214477
000100 78 3c 7e 3e a2 4a 36 3e 02 6d 50 3d 43 40 05 bd
       0.24827754 0.17801908 0.050885208 -0.032531988
000110 6b af 63 be b4 33 9a bd d7 df af bd 06 e0 a4 bd
       -0.22234885 -0.07529393 -0.08587616 -0.080505416
000120 49 46 32 bc 46 48 f3 3c d0 2b 16 3d b0 bb 66 3e
       -0.010881015 0.029697549 0.036662877 0.22532535
000130 ae af 11 3d 7d aa a0 bd 64 e5 b7 bd 1c 73 bd bb
       0.03556793 -0.07845018 -0.089793 -0.0057815444
000140 f2 75 82 3e 1c ed 86 3d ea 64 bd 3b 38 36 2b be
       0.2548061 0.06588194 0.005779852 -0.16719902
000150 00 b6 50 bd 6a a4 5c be 1f c2 a0 3d 8a 38 d8 bd
       -0.05095482 -0.21547094 0.07849526 -0.10557659
000160 30 ed a0 3d 79 c2 dd bd 42 bf 1a 3e 2d 7f 9c 3d
       0.0785774 -0.10828108 0.15112022 0.07641444
000170 db 19 4d 3e 52 ba 98 3d a6 ce 2d 3d 8a a4 8a 3e
       0.20029394 0.07457413 0.042433403 0.27078658

fc1.weight f4 [1, 32]
000000 57 40 a0 be 32 36 5f be 66 7e 2d 3e b4 ca 0c c0
       -0.31299087 -0.21798018 0.16942748 -2.199872
000010 64 e0 38 40 61 f7 1c c0 0f 62 f9 3f 09 35 cb be
       2.8886957 -2.4525988 1.948305 -0.396889
000020 bc 79 0c 3f 91 a9 48 bf 51 88 d5 bf 93 a2 db 3f
       0.5487325 -0.7838374 -1.6682225 1.7158989
000030 33 d0 b5 bf 03 4e 29 40 8d 17 bf 3f 42 4c d7 bf
       -1.4204162 2.6453865 1.4929062 -1.6820147
000040 ca 9d df be f9 b9 f1 3f 19 41 4b 3e 53 b3 cc 3e
       -0.4367507 1.8884879 0.19849052 0.39980564
000050 b0 53 3f bf e7 d4 a4 3f d4 01 10 40 c1 98 d6 3f
       -0.7473707 1.2877473 2.2501116 1.6765367
000060 90 f5 db bf 64 08 3e 3f cf 80 bd bf ca b1 df 3f
       -1.7184315 0.74231553 -1.4804934 1.7476132
000070 af 5c 14 3e ee 23 62 bf 04 1c bc 3f ff a0 fd bf
       0.14488481 -0.88336074 1.469605 -1.9814757
